…
      sampler {
        min_scale: 0.3
        max_scale: 1
        min_aspect_ratio: 0.5
        max_aspect_ratio: 2
      }
      sample_constraint {
        min_jaccard_overlap: 0.9
      }
      max_sample: 1
      max_trials: 50
    }
    batch_sampler {
      sampler {
        min_scale: 0.3
        max_scale: 1
        min_aspect_ratio: 0.5
        max_aspect_ratio: 2
      }
      sample_constraint {
        max_jaccard_overlap: 1
      }
      max_sample: 1
      max_trials: 50
    }
    label_map_file: "data/VOC0712/labelmap_voc.prototxt"
  }
}
layer {
  name: "conv1_1"
  type: "Convolution"
  bottom: "data"
  top: "conv1_1"
  param {
    lr_mult: 1
    decay_mult: 1
  }
  param {
    lr_mult: 2
    decay_mult: 0
  }
  convolution_param {
    num_output: 64
    pad: 1
    kernel_size: 3
    weight_filler {
      type: "xavier"
    }
    bias_filler {
      type: "constant"
      value: 0
    }
  }
}
layer {
  name: "relu1_1"
  type: "ReLU"
  bottom: "conv1_1"
  top: "conv1_1"
}
layer {
  name: "conv1_2"
  type: "Convolution"
  bottom: "conv1_1"
  top: "conv1_2"
  param {
    lr_mult: 1
    decay_mult: 1
  }
  param {
    lr_mult: 2
    decay_mult: 0
  }
  convolution_param {
    num_output: 64
    pad: 1
    kernel_size: 3
    weight_filler {
      type: "xavier"
    }
    bias_filler {
      type: "constant"
      value: 0
    }
  }
}
layer {
  name: "relu1_2"
  type: "ReLU"
  bottom: "conv1_2"
  top: "conv1_2"
}
layer {
  name: "pool1"
  type: "Pooling"
  bottom: "conv1_2"
  top: "pool1"
  pooling_param {
    pool: MAX
    kernel_size: 2
    stride: 2
  }
}
layer {
  name: "conv2_1"
  type: "Convolution"
  bottom: "pool1"
  top: "conv2_1"
  param {
    lr_mult: 1
    decay_mult: 1
  }
  param {
    lr_mult: 2
    decay_mult: 0
  }
  convolution_param {
    num_output: 128
    pad: 1
    kernel_size: 3
    weight_filler {
      type: "xavier"
    }
    bias_filler {
      type: "constant"
      value: 0
    }
  }
}
layer {
  name: "relu2_1"
  type: "ReLU"
  bottom: "conv2_1"
  top: "conv2_1"
}
layer {
  name: "conv2_2"
  type: "Convolution"
  bottom: "conv2_1"
  top: "conv2_2"
  param {
    lr_mult: 1
    decay_mult: 1
  }
  param {
    lr_mult: 2
    decay_mult: 0
  }
  convolution_param {
    num_output: 128
    pad: 1
    kernel_size: 3
    weight_filler {
      type: "xavier"
    }
    bias_filler {
      type: "constant"
      value: 0
    }
  }
}
layer {
  name: "relu2_2"
  type: "ReLU"
  bottom: "conv2_2"
  top: "conv2_2"
}
layer {
  name: "pool2"
  type: "Pooling"
  bottom: "conv2_2"
  top: "pool2"
  pooling_param {
    pool: MAX
    kernel_size: 2
    stride: 2
  }
}
layer {
  name: "conv3_1"
  type: "Convolution"
  bottom: "pool2"
  top: "conv3_1"
  param {
    lr_mult: 1
    decay_mult: 1
  }
  param {
    lr_mult: 2
    decay_mult: 0
  }
  convolution_param {
    num_output: 256
    pad: 1
    kernel_size: 3
    weight_filler {
      type: "xavier"
    }
    bias_filler {
      type: "constant"
      value: 0
    }
  }
}
layer {
  name: "relu3_1"
  type: "ReLU"
  bottom: "conv3_1"
  top: "conv3_1"
}
layer {
  name: "conv3_2"
  type: "Convolution"
  bottom: "conv3_1"
  top: "conv3_2"
  param {
    lr_mult: 1
    decay_mult: 1
  }
  param {
    lr_mult: 2
    decay_mult: 0
  }
  convolution_param {
    num_output: 256
    pad: 1
    kernel_size: 3
    weight_filler {
      type: "xavier"
    }
    bias_filler {
      type: "constant"
      value: 0
    }
  }
}
layer {
  name: "relu3_2"
  type: "ReLU"
  bottom: "conv3_2"
  top: "conv3_2"
}
layer {
  name: "conv3_3"
  type: "Convolution"
  bottom: "conv3_2"
  top: "conv3_3"
  param {
    lr_mult: 1
    decay_mult: 1
  }
  param {
    lr_mult: 2
    decay_mult: 0
  }
  convolution_param {
    num_output: 256
    pad: 1
    kernel_size: 3
    weight_filler {
      type: "xavier"
    }
    bias_filler {
      type: "constant"
      value: 0
    }
  }
}
layer {
  name: "relu3_3"
  type: "ReLU"
  bottom: "conv3_3"
  top: "conv3_3"
}
layer {
  name: "pool3"
  type: "Pooling"
  bottom: "conv3_3"
  top: "pool3"
  pooling_param {
    pool: MAX
    kernel_size: 2
    stride: 2
  }
}
layer {
  name: "conv4_1"
  type: "Convolution"
  bottom: "pool3"
  top: "conv4_1"
  param {
    lr_mult: 1
    decay_mult: 1
  }
  param {
    lr_mult: 2
    decay_mult: 0
  }
  convolution_param {
    num_output: 512
    pad: 1
    kernel_size: 3
    weight_filler {
      type: "xavier"
    }
    bias_filler {
      type: "constant"
      value: 0
    }
  }
}
layer {
  name: "relu4_1"
  type: "ReLU"
  bottom: "conv4_1"
  top: "conv4_1"
}
layer {
  name: "conv4_2"
  type: "Convolution"
  bottom: "conv4_1"
  top: "conv4_2"
  param {
    lr_mult: 1
    decay_mult: 1
  }
  param {
    lr_mult: 2
    decay_mult: 0
  }
  convolution_param {
    num_output: 512
    pad: 1
    kernel_size: 3
    weight_filler {
      type: "xavier"
    }
    bias_filler {
      type: "constant"
      value: 0
    }
  }
}
layer {
  name: "relu4_2"
  type: "ReLU"
  bottom: "conv4_2"
  top: "conv4_2"
}
layer {
  name: "conv4_3"
  type: "Convolution"
  bottom: "conv4_2"
  top: "conv4_3"
  param {
    lr_mult: 1
    decay_mult: 1
  }
  param {
    lr_mult: 2
    decay_mult: 0
  }
  convolution_param {
    num_output: 512
    pad: 1
    kernel_size: 3
    weight_filler {
      type: "xavier"
    }
    bias_filler {
      type: "constant"
      value: 0
    }
  }
}
layer {
  name: "relu4_3"
  type: "ReLU"
  bottom: "conv4_3"
  top: "conv4_3"
}
layer {
  name: "pool4"
  type: "Pooling"
  bottom: "conv4_3"
  top: "pool4"
  pooling_param {
    pool: MAX
    kernel_size: 2
    stride: 2
  }
}
layer {
  name: "conv5_1"
  type: "Convolution"
  bottom: "pool4"
  top: "conv5_1"
  param {
    lr_mult: 1
    decay_mult: 1
  }
  param {
    lr_mult: 2
    decay_mult: 0
  }
  convolution_param {
    num_output: 512
    pad: 1
    kernel_size: 3
    weight_filler {
      type: "xavier"
    }
    bias_filler {
      type: "constant"
      value: 0
    }
    dilation: 1
  }
}
layer {
  name: "relu5_1"
  type: "ReLU"
  bottom: "conv5_1"
  top: "conv5_1"
}
layer {
  name: "conv5_2"
  type: "Convolution"
  bottom: "conv5_1"
  top: "conv5_2"
  param {
    lr_mult: 1
    decay_mult: 1
  }
  param {
    lr_mult: 2
    decay_mult: 0
  }
  convolution_param {
    num_output: 512
    pad: 1
    kernel_size: 3
    weight_filler {
      type: "xavier"
    }
    bias_filler {
      type: "constant"
      value: 0
    }
    dilation: 1
  }
}
layer {
  name: "relu5_2"
  type: "ReLU"
  bottom: "conv5_2"
  top: "conv5_2"
}
layer {
  name: "conv5_3"
  type: "Convolution"
  bottom: "conv5_2"
  top: "conv5_3"
  param {
    lr_mult: 1
    decay_mult: 1
  }
  param {
    lr_mult: 2
    decay_mult: 0
  }
  convolution_param {
    num_output: 512
    pad: 1
    kernel_size: 3
    weight_filler {
      type: "xavier"
    }
    bias_filler {
      type: "constant"
      value: 0
    }
    dilation: 1
  }
}
layer {
  name: "relu5_3"
  type: "ReLU"
  bottom: "conv5_3"
  top: "conv5_3"
}
layer {
  name: "pool5"
  type: "Pooling"
  bottom: "conv5_3"
  top: "pool5"
  pooling_param {
    pool: MAX
    kernel_size: 3
    stride: 1
    pad: 1
  }
}
layer {
  name: "fc6"
  type: "Convolution"
  bottom: "pool5"
  top: "fc6"
  param {
    lr_mult: 1
    decay_mult: 1
  }
  param {
    lr_mult: 2
    decay_mult: 0
  }
  convolution_param {
    num_output: 1024
    pad: 6
    kernel_size: 3
    weight_filler {
      type: "xavier"
    }
    bias_filler {
      type: "constant"
      value: 0
    }
    dilation: 6
  }
}
layer {
  name: "relu6"
  type: "ReLU"
  bottom: "fc6"
  top: "fc6"
}
layer {
  name: "fc7"
  type: "Convolution"
  bottom: "fc6"
  top: "fc7"
  param {
    lr_mult: 1
    decay_mult: 1
  }
  param {
    lr_mult: 2
    decay_mult: 0
  }
  convolution_param {
    num_output: 1024
    kernel_size: 1
    weight_filler {
      type: "xavier"
    }
    bias_filler {
      type: "constant"
      value: 0
    }
  }
}
layer {
  name: "relu7"
  type: "ReLU"
  bottom: "fc7"
  top: "fc7"
}
layer {
  name: "conv6_1"
  type: "Convolution"
  bottom: "fc7"
  top: "conv6_1"
  param {
    lr_mult: 1
    decay_mult: 1
  }
  param {
    lr_mult: 2
    decay_mult: 0
  }
  convolution_param {
    num_output: 256
    pad: 0
    kernel_size: 1
    stride: 1
    weight_filler {
      type: "xavier"
    }
    bias_filler {
      type: "constant"
      value: 0
    }
  }
}
layer {
  name: "conv6_1_relu"
  type: "ReLU"
  bottom: "conv6_1"
  top: "conv6_1"
}
layer {
  name: "conv6_2"
  type: "Convolution"
  bottom: "conv6_1"
  top: "conv6_2"
  param {
    lr_mult: 1
    decay_mult: 1
  }
  param {
    lr_mult: 2
    decay_mult: 0
  }
  convolution_param {
    num_output: 512
    pad: 1
    kernel_size: 3
    stride: 2
    weight_filler {
      type: "xavier"
    }
    bias_filler {
      type: "constant"
      value: 0
    }
  }
}
layer {
  name: "conv6_2_relu"
  type: "ReLU"
  bottom: "conv6_2"
  top: "conv6_2"
}
layer {
  name: "conv7_1"
  type: "Convolution"
  bottom: "conv6_2"
  top: "conv7_1"
  param {
    lr_mult: 1
    decay_mult: 1
  }
  param {
    lr_mult: 2
    decay_mult: 0
  }
  convolution_param {
    num_output: 128
    pad: 0
    kernel_size: 1
    stride: 1
    weight_filler {
      type: "xavier"
    }
    bias_filler {
      type: "constant"
      value: 0
    }
  }
}
layer {
  name: "conv7_1_relu"
  type: "ReLU"
  bottom: "conv7_1"
  top: "conv7_1"
}
layer {
  name: "conv7_2"
  type: "Convolution"
  bottom: "conv7_1"
  top: "conv7_2"
  param {
    lr_mult: 1
    decay_mult: 1
  }
  param {
    lr_mult: 2
    decay_mult: 0
  }
  convolution_param {
    num_output: 256
    pad: 1
    kernel_size: 3
    stride: 2
    weight_filler {
      type: "xavier"
    }
    bias_filler {
      type: "constant"
      value: 0
    }
  }
}
layer {
  name: "conv7_2_relu"
  type: "ReLU"
  bottom: "conv7_2"
  top: "conv7_2"
}
layer {
  name: "conv8_1"
  type: "Convolution"
  bottom: "conv7_2"
  top: "conv8_1"
  param {
    lr_mult: 1
    decay_mult: 1
  }
  param {
    lr_mult: 2
    decay_mult: 0
  }
  convolution_param {
    num_output: 128
    pad: 0
    kernel_size: 1
    stride: 1
    weight_filler {
      type: "xavier"
    }
    bias_filler {
      type: "constant"
      value: 0
    }
  }
}
layer {
  name: "conv8_1_relu"
  type: "ReLU"
  bottom: "conv8_1"
  top: "conv8_1"
}
layer {
  name: "conv8_2"
  type: "Convolution"
  bottom: "conv8_1"
  top: "conv8_2"
  param {
    lr_mult: 1
    decay_mult: 1
  }
  param {
    lr_mult: 2
    decay_mult: 0
  }
  convolution_param {
    num_output: 256
    pad: 0
    kernel_size: 3
    stride: 1
    weight_filler {
      type: "xavier"
    }
    bias_filler {
      type: "constant"
      value: 0
    }
  }
}
layer {
  name: "conv8_2_relu"
  type: "ReLU"
  bottom: "conv8_2"
  top: "conv8_2"
}
layer {
  name: "conv9_1"
  type: "Convolution"
  bottom: "conv8_2"
  top: "conv9_1"
  param {
    lr_mult: 1
    decay_mult: 1
  }
  param {
    lr_mult: 2
    decay_mult: 0
  }
  convolution_param {
    num_output: 128
    pad: 0
    kernel_size: 1
    stride: 1
    weight_filler {
      type: "xavier"
    }
    bias_filler {
      type: "constant"
      value: 0
    }
  }
}
layer {
  name: "conv9_1_relu"
  type: "ReLU"
  bottom: "conv9_1"
  top: "conv9_1"
}
layer {
  name: "conv9_2"
  type: "Convolution"
  bottom: "conv9_1"
  top: "conv9_2"
  param {
    lr_mult: 1
    decay_mult: 1
  }
  param {
    lr_mult: 2
    decay_mult: 0
  }
  convolution_param {
    num_output: 256
    pad: 0
    kernel_size: 3
    stride: 1
    weight_filler {
      type: "xavier"
    }
    bias_filler {
      type: "constant"
      value: 0
    }
  }
}
layer {
  name: "conv9_2_relu"
  type: "ReLU"
  bottom: "conv9_2"
  top: "conv9_2"
}
layer {
  name: "conv4_3_norm"
  type: "Normalize"
  bottom: "conv4_3"
  top: "conv4_3_norm"
  norm_param {
    across_spatial: false
    scale_filler {
      type: "constant"
      value: 20
    }
    channel_shared: false
  }
}
layer {
  name: "conv4_3_norm_mbox_loc"
  type: "Convolution"
  bottom: "conv4_3_norm"
  top: "conv4_3_norm_mbox_loc"
  param {
    lr_mult: 1
    decay_mult: 1
  }
  param {
    lr_mult: 2
    decay_mult: 0
  }
  convolution_param {
    num_output: 16
    pad: 1
    kernel_size: 3
    stride: 1
    weight_filler {
      type: "xavier"
    }
    bias_filler {
      type: "constant"
      value: 0
    }
  }
}
layer {
  name: "conv4_3_norm_mbox_loc_perm"
  type: "Permute"
  bottom: "conv4_3_norm_mbox_loc"
  top: "conv4_3_norm_mbox_loc_perm"
  permute_param {
    order: 0
    order: 2
    order: 3
    order: 1
  }
}
layer {
  name: "conv4_3_norm_mbox_loc_flat"
  type: "Flatten"
  bottom: "conv4_3_norm_mbox_loc_perm"
  top: "conv4_3_norm_mbox_loc_flat"
  flatten_param {
    axis: 1
  }
}
layer {
  name: "conv4_3_norm_mbox_conf"
  type: "Convolution"
  bottom: "conv4_3_norm"
  top: "conv4_3_norm_mbox_conf"
  param {
    lr_mult: 1
    decay_mult: 1
  }
  param {
    lr_mult: 2
    decay_mult: 0
  }
  convolution_param {
    num_output: 84
    pad: 1
    kernel_size: 3
    stride: 1
    weight_filler {
      type: "xavier"
    }
    bias_filler {
      type: "constant"
      value: 0
    }
  }
}
layer {
  name: "conv4_3_norm_mbox_conf_perm"
  type: "Permute"
  bottom: "conv4_3_norm_mbox_conf"
  top: "conv4_3_norm_mbox_conf_perm"
  permute_param {
    order: 0
    order: 2
    order: 3
    order: 1
  }
}
layer {
  name: "conv4_3_norm_mbox_conf_flat"
  type: "Flatten"
  bottom: "conv4_3_norm_mbox_conf_perm"
  top: "conv4_3_norm_mbox_conf_flat"
  flatten_param {
    axis: 1
  }
}
layer {
  name: "conv4_3_norm_mbox_priorbox"
  type: "PriorBox"
  bottom: "conv4_3_norm"
  bottom: "data"
  top: "conv4_3_norm_mbox_priorbox"
  prior_box_param {
    min_size: 30
    max_size: 60
    aspect_ratio: 2
    flip: true
    clip: false
    variance: 0.1
    variance: 0.1
    variance: 0.2
    variance: 0.2
    step: 8
    offset: 0.5
  }
}
layer {
  name: "fc7_mbox_loc"
  type: "Convolution"
  bottom: "fc7"
  top: "fc7_mbox_loc"
  param {
    lr_mult: 1
    decay_mult: 1
  }
  param {
    lr_mult: 2
    decay_mult: 0
  }
  convolution_param {
    num_output: 24
    pad: 1
    kernel_size: 3
    stride: 1
    weight_filler {
      type: "xavier"
    }
    bias_filler {
      type: "constant"
      value: 0
    }
  }
}
layer {
  name: "fc7_mbox_loc_perm"
  type: "Permute"
  bottom: "fc7_mbox_loc"
  top: "fc7_mbox_loc_perm"
  permute_param {
    order: 0
    order: 2
    order: 3
    order: 1
  }
}
layer {
  name: "fc7_mbox_loc_flat"
  type: "Flatten"
  bottom: "fc7_mbox_loc_perm"
  top: "fc7_mbox_loc_flat"
  flatten_param {
    axis: 1
  }
}
layer {
  name: "fc7_mbox_conf"
  type: "Convolution"
  bottom: "fc7"
  top: "fc7_mbox_conf"
  param {
    lr_mult: 1
    decay_mult: 1
  }
  param {
    lr_mult: 2
    decay_mult: 0
  }
  convolution_param {
    num_output: 126
    pad: 1
    kernel_size: 3
    stride: 1
    weight_filler {
      type: "xavier"
    }
    bias_filler {
      type: "constant"
      value: 0
    }
  }
}
layer {
  name: "fc7_mbox_conf_perm"
  type: "Permute"
  bottom: "fc7_mbox_conf"
  top: "fc7_mbox_conf_perm"
  permute_param {
    order: 0
    order: 2
    order: 3
    order: 1
  }
}
layer {
  name: "fc7_mbox_conf_flat"
  type: "Flatten"
  bottom: "fc7_mbox_conf_perm"
  top: "fc7_mbox_conf_flat"
  flatten_param {
    axis: 1
  }
}
layer {
  name: "fc7_mbox_priorbox"
  type: "PriorBox"
  bottom: "fc7"
  bottom: "data"
  top: "fc7_mbox_priorbox"
  prior_box_param {
    min_size: 60
    max_size: 111
    aspect_ratio: 2
    aspect_ratio: 3
    flip: true
    clip: false
    variance: 0.1
    variance: 0.1
    variance: 0.2
    variance: 0.2
    step: 16
    offset: 0.5
  }
}
layer {
  name: "conv6_2_mbox_loc"
  type: "Convolution"
  bottom: "conv6_2"
  top: "conv6_2_mbox_loc"
  param {
    lr_mult: 1
    decay_mult: 1
  }
  param {
    lr_mult: 2
    decay_mult: 0
  }
  convolution_param {
    num_output: 24
    pad: 1
    kernel_size: 3
    stride: 1
    weight_filler {
      type: "xavier"
    }
    bias_filler {
      type: "constant"
      value: 0
    }
  }
}
layer {
  name: "conv6_2_mbox_loc_perm"
  type: "Permute"
  bottom: "conv6_2_mbox_loc"
  top: "conv6_2_mbox_loc_perm"
  permute_param {
    order: 0
    order: 2
    order: 3
    order: 1
  }
}
layer {
  name: "conv6_2_mbox_loc_flat"
  type: "Flatten"
  bottom: "conv6_2_mbox_loc_perm"
  top: "conv6_2_mbox_loc_flat"
  flatten_param {
    axis: 1
  }
}
layer {
  name: "conv6_2_mbox_conf"
  type: "Convolution"
  bottom: "conv6_2"
  top: "conv6_2_mbox_conf"
  param {
    lr_mult: 1
    decay_mult: 1
  }
  param {
    lr_mult: 2
    decay_mult: 0
  }
  convolution_param {
    num_output: 126
    pad: 1
    kernel_size: 3
    stride: 1
    weight_filler {
      type: "xavier"
    }
    bias_filler {
      type: "constant"
      value: 0
    }
  }
}
layer {
  name: "conv6_2_mbox_conf_perm"
  type: "Permute"
  bottom: "conv6_2_mbox_conf"
  top: "conv6_2_mbox_conf_perm"
  permute_param {
    order: 0
    order: 2
    order: 3
    order: 1
  }
}
layer {
  name: "conv6_2_mbox_conf_flat"
  type: "Flatten"
  bottom: "conv6_2_mbox_conf_perm"
  top: "conv6_2_mbox_conf_flat"
  flatten_param {
    axis: 1
  }
}
layer {
  name: "conv6_2_mbox_priorbox"
  type: "PriorBox"
  bottom: "conv6_2"
  bottom: "data"
  top: "conv6_2_mbox_priorbox"
  prior_box_param {
    min_size: 111
    max_size: 162
    aspect_ratio: 2
    aspect_ratio: 3
    flip: true
    clip: false
    variance: 0.1
    variance: 0.1
    variance: 0.2
    variance: 0.2
    step: 32
    offset: 0.5
  }
}
layer {
  name: "conv7_2_mbox_loc"
  type: "Convolution"
  bottom: "conv7_2"
  top: "conv7_2_mbox_loc"
  param {
    lr_mult: 1
    decay_mult: 1
  }
  param {
    lr_mult: 2
    decay_mult: 0
  }
  convolution_param {
    num_output: 24
    pad: 1
    kernel_size: 3
    stride: 1
    weight_filler {
      type: "xavier"
    }
    bias_filler {
      type: "constant"
      value: 0
    }
  }
}
layer {
  name: "conv7_2_mbox_loc_perm"
  type: "Permute"
  bottom: "conv7_2_mbox_loc"
  top: "conv7_2_mbox_loc_perm"
  permute_param {
    order: 0
    order: 2
    order: 3
    order: 1
  }
}
layer {
  name: "conv7_2_mbox_loc_flat"
  type: "Flatten"
  bottom: "conv7_2_mbox_loc_perm"
  top: "conv7_2_mbox_loc_flat"
  flatten_param {
    axis: 1
  }
}
layer {
  name: "conv7_2_mbox_conf"
  type: "Convolution"
  bottom: "conv7_2"
  top: "conv7_2_mbox_conf"
  param {
    lr_mult: 1
    decay_mult: 1
  }
  param {
    lr_mult: 2
    decay_mult: 0
  }
  convolution_param {
    num_output: 126
    pad: 1
    kernel_size: 3
    stride: 1
    weight_filler {
      type: "xavier"
    }
    bias_filler {
      type: "constant"
      value: 0
    }
  }
}
layer {
  name: "conv7_2_mbox_conf_perm"
  type: "Permute"
  bottom: "conv7_2_mbox_conf"
  top: "conv7_2_mbox_conf_perm"
  permute_param {
    order: 0
    order: 2
    order: 3
    order: 1
  }
}
layer {
  name: "conv7_2_mbox_conf_flat"
  type: "Flatten"
  bottom: "conv7_2_mbox_conf_perm"
  top: "conv7_2_mbox_conf_flat"
  flatten_param {
    axis: 1
  }
}
layer {
  name: "conv7_2_mbox_priorbox"
  type: "PriorBox"
  bottom: "conv7_2"
  bottom: "data"
  top: "conv7_2_mbox_priorbox"
  prior_box_param {
    min_size: 162
    max_size: 213
    aspect_ratio: 2
    aspect_ratio: 3
    flip: true
    clip: false
    variance: 0.1
    variance: 0.1
    variance: 0.2
    variance: 0.2
    step: 64
    offset: 0.5
  }
}
layer {
  name: "conv8_2_mbox_loc"
  type: "Convolution"
  bottom: "conv8_2"
  top: "conv8_2_mbox_loc"
  param {
    lr_mult: 1
    decay_mult: 1
  }
  param {
    lr_mult: 2
    decay_mult: 0
  }
  convolution_param {
    num_output: 16
    pad: 1
    kernel_size: 3
    stride: 1
    weight_filler {
      type: "xavier"
    }
    bias_filler {
      type: "constant"
      value: 0
    }
  }
}
layer {
  name: "conv8_2_mbox_loc_perm"
  type: "Permute"
  bottom: "conv8_2_mbox_loc"
  top: "conv8_2_mbox_loc_perm"
  permute_param {
    order: 0
    order: 2
    order: 3
    order: 1
  }
}
layer {
  name: "conv8_2_mbox_loc_flat"
  type: "Flatten"
  bottom: "conv8_2_mbox_loc_perm"
  top: "conv8_2_mbox_loc_flat"
  flatten_param {
    axis: 1
  }
}
layer {
  name: "conv8_2_mbox_conf"
  type: "Convolution"
  bottom: "conv8_2"
  top: "conv8_2_mbox_conf"
  param {
    lr_mult: 1
    decay_mult: 1
  }
  param {
    lr_mult: 2
    decay_mult: 0
  }
  convolution_param {
    num_output: 84
    pad: 1
    kernel_size: 3
    stride: 1
    weight_filler {
      type: "xavier"
    }
    bias_filler {
      type: "constant"
      value: 0
    }
  }
}
layer {
  name: "conv8_2_mbox_conf_perm"
  type: "Permute"
  bottom: "conv8_2_mbox_conf"
  top: "conv8_2_mbox_conf_perm"
  permute_param {
    order: 0
    order: 2
    order: 3
    order: 1
  }
}
layer {
  name: "conv8_2_mbox_conf_flat"
  type: "Flatten"
  bottom: "conv8_2_mbox_conf_perm"
  top: "conv8_2_mbox_conf_flat"
  flatten_param {
    axis: 1
  }
}
layer {
  name: "conv8_2_mbox_priorbox"
  type: "PriorBox"
  bottom: "conv8_2"
  bottom: "data"
  top: "conv8_2_mbox_priorbox"
  prior_box_param {
    min_size: 213
    max_size: 264
    aspect_ratio: 2
    flip: true
    clip: false
    variance: 0.1
    variance: 0.1
    variance: 0.2
    variance: 0.2
    step: 100
    offset: 0.5
  }
}
layer {
  name: "conv9_2_mbox_loc"
  type: "Convolution"
  bottom: "conv9_2"
  top: "conv9_2_mbox_loc"
  param {
    lr_mult: 1
    decay_mult: 1
  }
  param {
    lr_mult: 2
    decay_mult: 0
  }
  convolution_param {
    num_output: 16
    pad: 1
    kernel_size: 3
    stride: 1
    weight_filler {
      type: "xavier"
    }
    bias_filler {
      type: "constant"
      value: 0
    }
  }
}
layer {
  name: "conv9_2_mbox_loc_perm"
  type: "Permute"
  bottom: "conv9_2_mbox_loc"
  top: "conv9_2_mbox_loc_perm"
  permute_param {
    order: 0
    order: 2
    order: 3
    order: 1
  }
}
layer {
  name: "conv9_2_mbox_loc_flat"
  type: "Flatten"
  bottom: "conv9_2_mbox_loc_perm"
  top: "conv9_2_mbox_loc_flat"
  flatten_param {
    axis: 1
  }
}
layer {
  name: "conv9_2_mbox_conf"
  type: "Convolution"
  bottom: "conv9_2"
  top: "conv9_2_mbox_conf"
  param {
    lr_mult: 1
    decay_mult: 1
  }
  param {
    lr_mult: 2
    decay_mult: 0
  }
  convolution_param {
    num_output: 84
    pad: 1
    kernel_size: 3
    stride: 1
    weight_filler {
      type: "xavier"
    }
    bias_filler {
      type: "constant"
      value: 0
    }
  }
}
layer {
  name: "conv9_2_mbox_conf_perm"
  type: "Permute"
  bottom: "conv9_2_mbox_conf"
  top: "conv9_2_mbox_conf_perm"
  permute_param {
    order: 0
    order: 2
    order: 3
    order: 1
  }
}
layer {
  name: "conv9_2_mbox_conf_flat"
  type: "Flatten"
  bottom: "conv9_2_mbox_conf_perm"
  top: "conv9_2_mbox_conf_flat"
  flatten_param {
    axis: 1
  }
}
layer {
  name: "conv9_2_mbox_priorbox"
  type: "PriorBox"
  bottom: "conv9_2"
  bottom: "data"
  top: "conv9_2_mbox_priorbox"
  prior_box_param {
    min_size: 264
    max_size: 315
    aspect_ratio: 2
    flip: true
    clip: false
    variance: 0.1
    variance: 0.1
    variance: 0.2
    variance: 0.2
    step: 300
    offset: 0.5
  }
}
layer {
  name: "mbox_loc"
  type: "Concat"
  bottom: "conv4_3_norm_mbox_loc_flat"
  bottom: "fc7_mbox_loc_flat"
  bottom: "conv6_2_mbox_loc_flat"
  bottom: "conv7_2_mbox_loc_flat"
  bottom: "conv8_2_mbox_loc_flat"
  bottom: "conv9_2_mbox_loc_flat"
  top: "mbox_loc"
  concat_param {
    axis: 1
  }
}
layer {
  name: "mbox_conf"
  type: "Concat"
  bottom: "conv4_3_norm_mbox_conf_flat"
  bottom: "fc7_mbox_conf_flat"
  bottom: "conv6_2_mbox_conf_flat"
  bottom: "conv7_2_mbox_conf_flat"
  bottom: "conv8_2_mbox_conf_flat"
  bottom: "conv9_2_mbox_conf_flat"
  top: "mbox_conf"
  concat_param {
    axis: 1
  }
}
layer {
  name: "mbox_priorbox"
  type: "Concat"
  bottom: "conv4_3_norm_mbox_priorbox"
  bottom: "fc7_mbox_priorbox"
  bottom: "conv6_2_mbox_priorbox"
  bottom: "conv7_2_mbox_priorbox"
  bottom: "conv8_2_mbox_priorbox"
  bottom: "conv9_2_mbox_priorbox"
  top: "mbox_priorbox"
  concat_param {
    axis: 2
  }
}
layer {
  name: "mbox_loss"
  type: "MultiBoxLoss"
  bottom: "mbox_loc"
  bottom: "mbox_conf"
  bottom: "mbox_priorbox"
  bottom: "label"
  top: "mbox_loss"
  include {
    phase: TRAIN
  }
  propagate_down: true
  propagate_down: true
  propagate_down: false
  propagate_down: false
  loss_param {
    normalization: VALID
  }
  multibox_loss_param {
    loc_loss_type: SMOOTH_L1
    conf_loss_type: SOFTMAX
    loc_weight: 1
    num_classes: 21
    share_location: true
    match_type: PER_PREDICTION
    overlap_threshold: 0.5
    use_prior_for_matching: true
    background_label_id: 0
    use_difficult_gt: true
    neg_pos_ratio: 3
    neg_overlap: 0.5
    code_type: CENTER_SIZE
    ignore_cross_boundary_bbox: false
    mining_type: MAX_NEGATIVE
  }
}
I0831 16:53:18.931298 59706 layer_factory.hpp:77] Creating layer data
I0831 16:53:18.931481 59706 net.cpp:100] Creating Layer data
I0831 16:53:18.931493 59706 net.cpp:408] data -> data
I0831 16:53:18.931543 59706 net.cpp:408] data -> label
I0831 16:53:18.931879 59714 db_lmdb.cpp:35] Opened lmdb examples/VOC0712/VOC0712_trainval_lmdb
I0831 16:53:18.944164 59706 annotated_data_layer.cpp:62] output data size: 5,3,300,300
I0831 16:53:18.950804 59706 net.cpp:150] Setting up data
I0831 16:53:18.950831 59706 net.cpp:157] Top shape: 5 3 300 300 (1350000)
I0831 16:53:18.950837 59706 net.cpp:157] Top shape: 1 1 1 8 (8)
I0831 16:53:18.950840 59706 net.cpp:165] Memory required for data: 5400032
I0831 16:53:18.950881 59706 layer_factory.hpp:77] Creating layer data_data_0_split
I0831 16:53:18.950896 59706 net.cpp:100] Creating Layer data_data_0_split
I0831 16:53:18.950901 59706 net.cpp:434] data_data_0_split <- data
I0831 16:53:18.950915 59706 net.cpp:408] data_data_0_split -> data_data_0_split_0
I0831 16:53:18.950924 59706 net.cpp:408] data_data_0_split -> data_data_0_split_1
I0831 16:53:18.950929 59706 net.cpp:408] data_data_0_split -> data_data_0_split_2
I0831 16:53:18.950932 59706 net.cpp:408] data_data_0_split -> data_data_0_split_3
I0831 16:53:18.950935 59706 net.cpp:408] data_data_0_split -> data_data_0_split_4
I0831 16:53:18.950938 59706 net.cpp:408] data_data_0_split -> data_data_0_split_5
I0831 16:53:18.950942 59706 net.cpp:408] data_data_0_split -> data_data_0_split_6
I0831 16:53:18.951062 59706 net.cpp:150] Setting up data_data_0_split
I0831 16:53:18.951066 59706 net.cpp:157] Top shape: 5 3 300 300 (1350000)
I0831 16:53:18.951072 59706 net.cpp:157] Top shape: 5 3 300 300 (1350000)
I0831 16:53:18.951076 59706 net.cpp:157] Top shape: 5 3 300 300 (1350000)
I0831 16:53:18.951078 59706 net.cpp:157] Top shape: 5 3 300 300 (1350000)
I0831 16:53:18.951081 59706 net.cpp:157] Top shape: 5 3 300 300 (1350000)
I0831 16:53:18.951083 59706 net.cpp:157] Top shape: 5 3 300 300 (1350000)
I0831 16:53:18.951086 59706 net.cpp:157] Top shape: 5 3 300 300 (1350000)
I0831 16:53:18.951089 59706 net.cpp:165] Memory required for data: 43200032
I0831 16:53:18.951092 59706 layer_factory.hpp:77] Creating layer conv1_1
I0831 16:53:18.951122 59706 net.cpp:100] Creating Layer conv1_1
I0831 16:53:18.951128 59706 net.cpp:434] conv1_1 <- data_data_0_split_0
I0831 16:53:18.951134 59706 net.cpp:408] conv1_1 -> conv1_1
I0831 16:53:18.951311 59706 net.cpp:150] Setting up conv1_1
I0831 16:53:18.951316 59706 net.cpp:157] Top shape: 5 64 300 300 (28800000)
I0831 16:53:18.951319 59706 net.cpp:165] Memory required for data: 158400032
I0831 16:53:18.951329 59706 layer_factory.hpp:77] Creating layer relu1_1
I0831 16:53:18.951334 59706 net.cpp:100] Creating Layer relu1_1
I0831 16:53:18.951336 59706 net.cpp:434] relu1_1 <- conv1_1
I0831 16:53:18.951340 59706 net.cpp:395] relu1_1 -> conv1_1 (in-place)
I0831 16:53:18.951345 59706 net.cpp:150] Setting up relu1_1
I0831 16:53:18.951347 59706 net.cpp:157] Top shape: 5 64 300 300 (28800000)
I0831 16:53:18.951349 59706 net.cpp:165] Memory required for data: 273600032
I0831 16:53:18.951351 59706 layer_factory.hpp:77] Creating layer conv1_2
I0831 16:53:18.951356 59706 net.cpp:100] Creating Layer conv1_2
I0831 16:53:18.951359 59706 net.cpp:434] conv1_2 <- conv1_1
I0831 16:53:18.951360 59706 net.cpp:408] conv1_2 -> conv1_2
I0831 16:53:18.951602 59706 net.cpp:150] Setting up conv1_2
I0831 16:53:18.951607 59706 net.cpp:157] Top shape: 5 64 300 300 (28800000)
I0831 16:53:18.951611 59706 net.cpp:165] Memory required for data: 388800032
I0831 16:53:18.951613 59706 layer_factory.hpp:77] Creating layer relu1_2
I0831 16:53:18.951617 59706 net.cpp:100] Creating Layer relu1_2
I0831 16:53:18.951619 59706 net.cpp:434] relu1_2 <- conv1_2
I0831 16:53:18.951622 59706 net.cpp:395] relu1_2 -> conv1_2 (in-place)
I0831 16:53:18.951625 59706 net.cpp:150] Setting up relu1_2
I0831 16:53:18.951627 59706 net.cpp:157] Top shape: 5 64 300 300 (28800000)
I0831 16:53:18.951628 59706 net.cpp:165] Memory required for data: 504000032
I0831 16:53:18.951632 59706 layer_factory.hpp:77] Creating layer pool1
I0831 16:53:18.951637 59706 net.cpp:100] Creating Layer pool1
I0831 16:53:18.951639 59706 net.cpp:434] pool1 <- conv1_2
I0831 16:53:18.951642 59706 net.cpp:408] pool1 -> pool1
I0831 16:53:18.951664 59706 net.cpp:150] Setting up pool1
I0831 16:53:18.951668 59706 net.cpp:157] Top shape: 5 64 150 150 (7200000)
I0831 16:53:18.951670 59706 net.cpp:165] Memory required for data: 532800032
I0831 16:53:18.951673 59706 layer_factory.hpp:77] Creating layer conv2_1
I0831 16:53:18.951678 59706 net.cpp:100] Creating Layer conv2_1
I0831 16:53:18.951681 59706 net.cpp:434] conv2_1 <- pool1
I0831 16:53:18.951684 59706 net.cpp:408] conv2_1 -> conv2_1
I0831 16:53:18.952039 59706 net.cpp:150] Setting up conv2_1
I0831 16:53:18.952044 59706 net.cpp:157] Top shape: 5 128 150 150 (14400000)
I0831 16:53:18.952046 59706 net.cpp:165] Memory required for data: 590400032
I0831 16:53:18.952051 59706 layer_factory.hpp:77] Creating layer relu2_1
I0831 16:53:18.952055 59706 net.cpp:100] Creating Layer relu2_1
I0831 16:53:18.952057 59706 net.cpp:434] relu2_1 <- conv2_1
I0831 16:53:18.952060 59706 net.cpp:395] relu2_1 -> conv2_1 (in-place)
I0831 16:53:18.952062 59706 net.cpp:150] Setting up relu2_1
I0831 16:53:18.952064 59706 net.cpp:157] Top shape: 5 128 150 150 (14400000)
I0831 16:53:18.952066 59706 net.cpp:165] Memory required for data: 648000032
I0831 16:53:18.952068 59706 layer_factory.hpp:77] Creating layer conv2_2
I0831 16:53:18.952075 59706 net.cpp:100] Creating Layer conv2_2
I0831 16:53:18.952077 59706 net.cpp:434] conv2_2 <- conv2_1
I0831 16:53:18.952080 59706 net.cpp:408] conv2_2 -> conv2_2
I0831 16:53:18.952683 59706 net.cpp:150] Setting up conv2_2
I0831 16:53:18.952689 59706 net.cpp:157] Top shape: 5 128 150 150 (14400000)
I0831 16:53:18.952692 59706 net.cpp:165] Memory required for data: 705600032
I0831 16:53:18.952695 59706 layer_factory.hpp:77] Creating layer relu2_2
I0831 16:53:18.952698 59706 net.cpp:100] Creating Layer relu2_2
I0831 16:53:18.952700 59706 net.cpp:434] relu2_2 <- conv2_2
I0831 16:53:18.952703 59706 net.cpp:395] relu2_2 -> conv2_2 (in-place)
I0831 16:53:18.952706 59706 net.cpp:150] Setting up relu2_2
I0831 16:53:18.952708 59706 net.cpp:157] Top shape: 5 128 150 150 (14400000)
I0831 16:53:18.952709 59706 net.cpp:165] Memory required for data: 763200032
I0831 16:53:18.952711 59706 layer_factory.hpp:77] Creating layer pool2
I0831 16:53:18.952715 59706 net.cpp:100] Creating Layer pool2
I0831 16:53:18.952716 59706 net.cpp:434] pool2 <- conv2_2
I0831 16:53:18.952719 59706 net.cpp:408] pool2 -> pool2
I0831 16:53:18.952739 59706 net.cpp:150] Setting up pool2
I0831 16:53:18.952741 59706 net.cpp:157] Top shape: 5 128 75 75 (3600000)
I0831 16:53:18.952744 59706 net.cpp:165] Memory required for data: 777600032
I0831 16:53:18.952745 59706 layer_factory.hpp:77] Creating layer conv3_1
I0831 16:53:18.952750 59706 net.cpp:100] Creating Layer conv3_1
I0831 16:53:18.952752 59706 net.cpp:434] conv3_1 <- pool2
I0831 16:53:18.952755 59706 net.cpp:408] conv3_1 -> conv3_1
I0831 16:53:18.954521 59706 net.cpp:150] Setting up conv3_1
I0831 16:53:18.954541 59706 net.cpp:157] Top shape: 5 256 75 75 (7200000)
I0831 16:53:18.954546 59706 net.cpp:165] Memory required for data: 806400032
I0831 16:53:18.954555 59706 layer_factory.hpp:77] Creating layer relu3_1
I0831 16:53:18.954560 59706 net.cpp:100] Creating Layer relu3_1
I0831 16:53:18.954562 59706 net.cpp:434] relu3_1 <- conv3_1
I0831 16:53:18.954566 59706 net.cpp:395] relu3_1 -> conv3_1 (in-place)
I0831 16:53:18.954572 59706 net.cpp:150] Setting up relu3_1
I0831 16:53:18.954574 59706 net.cpp:157] Top shape: 5 256 75 75 (7200000)
I0831 16:53:18.954576 59706 net.cpp:165] Memory required for data: 835200032
I0831 16:53:18.954578 59706 layer_factory.hpp:77] Creating layer conv3_2
I0831 16:53:18.954586 59706 net.cpp:100] Creating Layer conv3_2
I0831 16:53:18.954587 59706 net.cpp:434] conv3_2 <- conv3_1
I0831 16:53:18.954591 59706 net.cpp:408] conv3_2 -> conv3_2
I0831 16:53:18.957808 59706 net.cpp:150] Setting up conv3_2
I0831 16:53:18.957860 59706 net.cpp:157] Top shape: 5 256 75 75 (7200000)
I0831 16:53:18.957877 59706 net.cpp:165] Memory required for data: 864000032
I0831 16:53:18.957892 59706 layer_factory.hpp:77] Creating layer relu3_2
I0831 16:53:18.957907 59706 net.cpp:100] Creating Layer relu3_2
I0831 16:53:18.957918 59706 net.cpp:434] relu3_2 <- conv3_2
I0831 16:53:18.957931 59706 net.cpp:395] relu3_2 -> conv3_2 (in-place)
I0831 16:53:18.957948 59706 net.cpp:150] Setting up relu3_2
I0831 16:53:18.957958 59706 net.cpp:157] Top shape: 5 256 75 75 (7200000)
I0831 16:53:18.957969 59706 net.cpp:165] Memory required for data: 892800032
I0831 16:53:18.957980 59706 layer_factory.hpp:77] Creating layer conv3_3
I0831 16:53:18.958016 59706 net.cpp:100] Creating Layer conv3_3
I0831 16:53:18.958029 59706 net.cpp:434] conv3_3 <- conv3_2
I0831 16:53:18.958039 59706 net.cpp:408] conv3_3 -> conv3_3
I0831 16:53:18.961247 59706 net.cpp:150] Setting up conv3_3
I0831 16:53:18.961266 59706 net.cpp:157] Top shape: 5 256 75 75 (7200000)
I0831 16:53:18.961289 59706 net.cpp:165] Memory required for data: 921600032
I0831 16:53:18.961295 59706 layer_factory.hpp:77] Creating layer relu3_3
I0831 16:53:18.961299 59706 net.cpp:100] Creating Layer relu3_3
I0831 16:53:18.961302 59706 net.cpp:434] relu3_3 <- conv3_3
I0831 16:53:18.961308 59706 net.cpp:395] relu3_3 -> conv3_3 (in-place)
I0831 16:53:18.961314 59706 net.cpp:150] Setting up relu3_3
I0831 16:53:18.961316 59706 net.cpp:157] Top shape: 5 256 75 75 (7200000)
I0831 16:53:18.961319 59706 net.cpp:165] Memory required for data: 950400032
I0831 16:53:18.961320 59706 layer_factory.hpp:77] Creating layer pool3
I0831 16:53:18.961326 59706 net.cpp:100] Creating Layer pool3
I0831 16:53:18.961329 59706 net.cpp:434] pool3 <- conv3_3
I0831 16:53:18.961334 59706 net.cpp:408] pool3 -> pool3
I0831 16:53:18.961359 59706 net.cpp:150] Setting up pool3
I0831 16:53:18.961362 59706 net.cpp:157] Top shape: 5 256 38 38 (1848320)
I0831 16:53:18.961365 59706 net.cpp:165] Memory required for data: 957793312
I0831 16:53:18.961369 59706 layer_factory.hpp:77] Creating layer conv4_1
I0831 16:53:18.961378 59706 net.cpp:100] Creating Layer conv4_1
I0831 16:53:18.961381 59706 net.cpp:434] conv4_1 <- pool3
I0831 16:53:18.961385 59706 net.cpp:408] conv4_1 -> conv4_1
I0831 16:53:18.967067 59706 net.cpp:150] Setting up conv4_1
I0831 16:53:18.967088 59706 net.cpp:157] Top shape: 5 512 38 38 (3696640)
I0831 16:53:18.967116 59706 net.cpp:165] Memory required for data: 972579872
I0831 16:53:18.967123 59706 layer_factory.hpp:77] Creating layer relu4_1
I0831 16:53:18.967129 59706 net.cpp:100] Creating Layer relu4_1
I0831 16:53:18.967133 59706 net.cpp:434] relu4_1 <- conv4_1
I0831 16:53:18.967139 59706 net.cpp:395] relu4_1 -> conv4_1 (in-place)
I0831 16:53:18.967147 59706 net.cpp:150] Setting up relu4_1
I0831 16:53:18.967150 59706 net.cpp:157] Top shape: 5 512 38 38 (3696640)
I0831 16:53:18.967154 59706 net.cpp:165] Memory required for data: 987366432
I0831 16:53:18.967156 59706 layer_factory.hpp:77] Creating layer conv4_2
I0831 16:53:18.967167 59706 net.cpp:100] Creating Layer conv4_2
I0831 16:53:18.967171 59706 net.cpp:434] conv4_2 <- conv4_1
I0831 16:53:18.967175 59706 net.cpp:408] conv4_2 -> conv4_2
I0831 16:53:18.978773 59706 net.cpp:150] Setting up conv4_2
I0831 16:53:18.978794 59706 net.cpp:157] Top shape: 5 512 38 38 (3696640)
I0831 16:53:18.978818 59706 net.cpp:165] Memory required for data: 1002152992
I0831 16:53:18.978828 59706 layer_factory.hpp:77] Creating layer relu4_2
I0831 16:53:18.978835 59706 net.cpp:100] Creating Layer relu4_2
I0831 16:53:18.978839 59706 net.cpp:434] relu4_2 <- conv4_2
I0831 16:53:18.978845 59706 net.cpp:395] relu4_2 -> conv4_2 (in-place)
I0831 16:53:18.978855 59706 net.cpp:150] Setting up relu4_2
I0831 16:53:18.978857 59706 net.cpp:157] Top shape: 5 512 38 38 (3696640)
I0831 16:53:18.978860 59706 net.cpp:165] Memory required for data: 1016939552
I0831 16:53:18.978864 59706 layer_factory.hpp:77] Creating layer conv4_3
I0831 16:53:18.978874 59706 net.cpp:100] Creating Layer conv4_3
I0831 16:53:18.978878 59706 net.cpp:434] conv4_3 <- conv4_2
I0831 16:53:18.978880 59706 net.cpp:408] conv4_3 -> conv4_3
I0831 16:53:18.991967 59706 net.cpp:150] Setting up conv4_3
I0831 16:53:18.991984 59706 net.cpp:157] Top shape: 5 512 38 38 (3696640)
I0831 16:53:18.992008 59706 net.cpp:165] Memory required for data: 1031726112
I0831 16:53:18.992013 59706 layer_factory.hpp:77] Creating layer relu4_3
I0831 16:53:18.992020 59706 net.cpp:100] Creating Layer relu4_3
I0831 16:53:18.992024 59706 net.cpp:434] relu4_3 <- conv4_3
I0831 16:53:18.992030 59706 net.cpp:395] relu4_3 -> conv4_3 (in-place)
I0831 16:53:18.992038 59706 net.cpp:150] Setting up relu4_3
I0831 16:53:18.992041 59706 net.cpp:157] Top shape: 5 512 38 38 (3696640)
I0831 16:53:18.992062 59706 net.cpp:165] Memory required for data: 1046512672
I0831 16:53:18.992066 59706 layer_factory.hpp:77] Creating layer conv4_3_relu4_3_0_split
I0831 16:53:18.992071 59706 net.cpp:100] Creating Layer conv4_3_relu4_3_0_split
I0831 16:53:18.992074 59706 net.cpp:434] conv4_3_relu4_3_0_split <- conv4_3
I0831 16:53:18.992079 59706 net.cpp:408] conv4_3_relu4_3_0_split -> conv4_3_relu4_3_0_split_0
I0831 16:53:18.992086 59706 net.cpp:408] conv4_3_relu4_3_0_split -> conv4_3_relu4_3_0_split_1
I0831 16:53:18.992112 59706 net.cpp:150] Setting up conv4_3_relu4_3_0_split
I0831 16:53:18.992116 59706 net.cpp:157] Top shape: 5 512 38 38 (3696640)
I0831 16:53:18.992120 59706 net.cpp:157] Top shape: 5 512 38 38 (3696640)
I0831 16:53:18.992125 59706 net.cpp:165] Memory required for data: 1076085792
I0831 16:53:18.992127 59706 layer_factory.hpp:77] Creating layer pool4
I0831 16:53:18.992133 59706 net.cpp:100] Creating Layer pool4
I0831 16:53:18.992136 59706 net.cpp:434] pool4 <- conv4_3_relu4_3_0_split_0
I0831 16:53:18.992141 59706 net.cpp:408] pool4 -> pool4
I0831 16:53:18.992161 59706 net.cpp:150] Setting up pool4
I0831 16:53:18.992164 59706 net.cpp:157] Top shape: 5 512 19 19 (924160)
I0831 16:53:18.992167 59706 net.cpp:165] Memory required for data: 1079782432
I0831 16:53:18.992170 59706 layer_factory.hpp:77] Creating layer conv5_1
I0831 16:53:18.992178 59706 net.cpp:100] Creating Layer conv5_1
I0831 16:53:18.992182 59706 net.cpp:434] conv5_1 <- pool4
I0831 16:53:18.992187 59706 net.cpp:408] conv5_1 -> conv5_1
I0831 16:53:19.004439 59706 net.cpp:150] Setting up conv5_1
I0831 16:53:19.004492 59706 net.cpp:157] Top shape: 5 512 19 19 (924160)
I0831 16:53:19.004514 59706 net.cpp:165] Memory required for data: 1083479072
I0831 16:53:19.004534 59706 layer_factory.hpp:77] Creating layer relu5_1
I0831 16:53:19.004550 59706 net.cpp:100] Creating Layer relu5_1
I0831 16:53:19.004566 59706 net.cpp:434] relu5_1 <- conv5_1
I0831 16:53:19.004583 59706 net.cpp:395] relu5_1 -> conv5_1 (in-place)
I0831 16:53:19.004603 59706 net.cpp:150] Setting up relu5_1
I0831 16:53:19.004618 59706 net.cpp:157] Top shape: 5 512 19 19 (924160)
I0831 16:53:19.004633 59706 net.cpp:165] Memory required for data: 1087175712
I0831 16:53:19.004647 59706 layer_factory.hpp:77] Creating layer conv5_2
I0831 16:53:19.004679 59706 net.cpp:100] Creating Layer conv5_2
I0831 16:53:19.004695 59706 net.cpp:434] conv5_2 <- conv5_1
I0831 16:53:19.004712 59706 net.cpp:408] conv5_2 -> conv5_2
I0831 16:53:19.016862 59706 net.cpp:150] Setting up conv5_2
I0831 16:53:19.016877 59706 net.cpp:157] Top shape: 5 512 19 19 (924160)
I0831 16:53:19.016901 59706 net.cpp:165] Memory required for data: 1090872352
I0831 16:53:19.016906 59706 layer_factory.hpp:77] Creating layer relu5_2
I0831 16:53:19.016911 59706 net.cpp:100] Creating Layer relu5_2
I0831 16:53:19.016914 59706 net.cpp:434] relu5_2 <- conv5_2
I0831 16:53:19.016917 59706 net.cpp:395] relu5_2 -> conv5_2 (in-place)
I0831 16:53:19.016924 59706 net.cpp:150] Setting up relu5_2
I0831 16:53:19.016927 59706 net.cpp:157] Top shape: 5 512 19 19 (924160)
I0831 16:53:19.016928 59706 net.cpp:165] Memory required for data: 1094568992
I0831 16:53:19.016929 59706 layer_factory.hpp:77] Creating layer conv5_3
I0831 16:53:19.016935 59706 net.cpp:100] Creating Layer conv5_3
I0831 16:53:19.016937 59706 net.cpp:434] conv5_3 <- conv5_2
I0831 16:53:19.016959 59706 net.cpp:408] conv5_3 -> conv5_3
I0831 16:53:19.030194 59706 net.cpp:150] Setting up conv5_3
I0831 16:53:19.030210 59706 net.cpp:157] Top shape: 5 512 19 19 (924160)
I0831 16:53:19.030236 59706 net.cpp:165] Memory required for data: 1098265632
I0831 16:53:19.030241 59706 layer_factory.hpp:77] Creating layer relu5_3
I0831 16:53:19.030249 59706 net.cpp:100] Creating Layer relu5_3
I0831 16:53:19.030253 59706 net.cpp:434] relu5_3 <- conv5_3
I0831 16:53:19.030257 59706 net.cpp:395] relu5_3 -> conv5_3 (in-place)
I0831 16:53:19.030263 59706 net.cpp:150] Setting up relu5_3
I0831 16:53:19.030264 59706 net.cpp:157] Top shape: 5 512 19 19 (924160)
I0831 16:53:19.030267 59706 net.cpp:165] Memory required for data: 1101962272
I0831 16:53:19.030308 59706 layer_factory.hpp:77] Creating layer pool5
I0831 16:53:19.030313 59706 net.cpp:100] Creating Layer pool5
I0831 16:53:19.030315 59706 net.cpp:434] pool5 <- conv5_3
I0831 16:53:19.030318 59706 net.cpp:408] pool5 -> pool5
I0831 16:53:19.030402 59706 net.cpp:150] Setting up pool5
I0831 16:53:19.030422 59706 net.cpp:157] Top shape: 5 512 19 19 (924160)
I0831 16:53:19.030426 59706 net.cpp:165] Memory required for data: 1105658912
I0831 16:53:19.030427 59706 layer_factory.hpp:77] Creating layer fc6
I0831 16:53:19.030455 59706 net.cpp:100] Creating Layer fc6
I0831 16:53:19.030457 59706 net.cpp:434] fc6 <- pool5
I0831 16:53:19.030460 59706 net.cpp:408] fc6 -> fc6
I0831 16:53:19.053958 59706 net.cpp:150] Setting up fc6
I0831 16:53:19.053975 59706 net.cpp:157] Top shape: 5 1024 19 19 (1848320)
I0831 16:53:19.053980 59706 net.cpp:165] Memory required for data: 1113052192
I0831 16:53:19.053984 59706 layer_factory.hpp:77] Creating layer relu6
I0831 16:53:19.053990 59706 net.cpp:100] Creating Layer relu6
I0831 16:53:19.053992 59706 net.cpp:434] relu6 <- fc6
I0831 16:53:19.053997 59706 net.cpp:395] relu6 -> fc6 (in-place)
I0831 16:53:19.054003 59706 net.cpp:150] Setting up relu6
I0831 16:53:19.054003 59706 net.cpp:157] Top shape: 5 1024 19 19 (1848320)
I0831 16:53:19.054008 59706 net.cpp:165] Memory required for data: 1120445472
I0831 16:53:19.054008 59706 layer_factory.hpp:77] Creating layer fc7
I0831 16:53:19.054014 59706 net.cpp:100] Creating Layer fc7
I0831 16:53:19.054016 59706 net.cpp:434] fc7 <- fc6
I0831 16:53:19.054018 59706 net.cpp:408] fc7 -> fc7
I0831 16:53:19.058899 59706 net.cpp:150] Setting up fc7
I0831 16:53:19.058916 59706 net.cpp:157] Top shape: 5 1024 19 19 (1848320)
I0831 16:53:19.058920 59706 net.cpp:165] Memory required for data: 1127838752
I0831 16:53:19.058924 59706 layer_factory.hpp:77] Creating layer relu7
I0831 16:53:19.058928 59706 net.cpp:100] Creating Layer relu7
I0831 16:53:19.058931 59706 net.cpp:434] relu7 <- fc7
I0831 16:53:19.058934 59706 net.cpp:395] relu7 -> fc7 (in-place)
I0831 16:53:19.058939 59706 net.cpp:150] Setting up relu7
I0831 16:53:19.058941 59706 net.cpp:157] Top shape: 5 1024 19 19 (1848320)
I0831 16:53:19.058943 59706 net.cpp:165] Memory required for data: 1135232032
I0831 16:53:19.058945 59706 layer_factory.hpp:77] Creating layer fc7_relu7_0_split
I0831 16:53:19.058949 59706 net.cpp:100] Creating Layer fc7_relu7_0_split
I0831 16:53:19.058951 59706 net.cpp:434] fc7_relu7_0_split <- fc7
I0831 16:53:19.058954 59706 net.cpp:408] fc7_relu7_0_split -> fc7_relu7_0_split_0
I0831 16:53:19.058977 59706 net.cpp:408] fc7_relu7_0_split -> fc7_relu7_0_split_1
I0831 16:53:19.058984 59706 net.cpp:408] fc7_relu7_0_split -> fc7_relu7_0_split_2
I0831 16:53:19.058986 59706 net.cpp:408] fc7_relu7_0_split -> fc7_relu7_0_split_3
I0831 16:53:19.059027 59706 net.cpp:150] Setting up fc7_relu7_0_split
I0831 16:53:19.059031 59706 net.cpp:157] Top shape: 5 1024 19 19 (1848320)
I0831 16:53:19.059034 59706 net.cpp:157] Top shape: 5 1024 19 19 (1848320)
I0831 16:53:19.059036 59706 net.cpp:157] Top shape: 5 1024 19 19 (1848320)
I0831 16:53:19.059037 59706 net.cpp:157] Top shape: 5 1024 19 19 (1848320)
I0831 16:53:19.059039 59706 net.cpp:165] Memory required for data: 1164805152
I0831 16:53:19.059041 59706 layer_factory.hpp:77] Creating layer conv6_1
I0831 16:53:19.059047 59706 net.cpp:100] Creating Layer conv6_1
I0831 16:53:19.059049 59706 net.cpp:434] conv6_1 <- fc7_relu7_0_split_0
I0831 16:53:19.059052 59706 net.cpp:408] conv6_1 -> conv6_1
I0831 16:53:19.060667 59706 net.cpp:150] Setting up conv6_1
I0831 16:53:19.060678 59706 net.cpp:157] Top shape: 5 256 19 19 (462080)
I0831 16:53:19.060680 59706 net.cpp:165] Memory required for data: 1166653472
I0831 16:53:19.060684 59706 layer_factory.hpp:77] Creating layer conv6_1_relu
I0831 16:53:19.060688 59706 net.cpp:100] Creating Layer conv6_1_relu
I0831 16:53:19.060690 59706 net.cpp:434] conv6_1_relu <- conv6_1
I0831 16:53:19.060693 59706 net.cpp:395] conv6_1_relu -> conv6_1 (in-place)
I0831 16:53:19.060699 59706 net.cpp:150] Setting up conv6_1_relu
I0831 16:53:19.060741 59706 net.cpp:157] Top shape: 5 256 19 19 (462080)
I0831 16:53:19.060746 59706 net.cpp:165] Memory required for data: 1168501792
I0831 16:53:19.060750 59706 layer_factory.hpp:77] Creating layer conv6_2
I0831 16:53:19.060757 59706 net.cpp:100] Creating Layer conv6_2
I0831 16:53:19.060760 59706 net.cpp:434] conv6_2 <- conv6_1
I0831 16:53:19.060763 59706 net.cpp:408] conv6_2 -> conv6_2
I0831 16:53:19.068302 59706 net.cpp:150] Setting up conv6_2
I0831 16:53:19.068323 59706 net.cpp:157] Top shape: 5 512 10 10 (256000)
I0831 16:53:19.068328 59706 net.cpp:165] Memory required for data: 1169525792
I0831 16:53:19.068337 59706 layer_factory.hpp:77] Creating layer conv6_2_relu
I0831 16:53:19.068343 59706 net.cpp:100] Creating Layer conv6_2_relu
I0831 16:53:19.068346 59706 net.cpp:434] conv6_2_relu <- conv6_2
I0831 16:53:19.068351 59706 net.cpp:395] conv6_2_relu -> conv6_2 (in-place)
I0831 16:53:19.068357 59706 net.cpp:150] Setting up conv6_2_relu
I0831 16:53:19.068359 59706 net.cpp:157] Top shape: 5 512 10 10 (256000)
I0831 16:53:19.068361 59706 net.cpp:165] Memory required for data: 1170549792
I0831 16:53:19.068363 59706 layer_factory.hpp:77] Creating layer conv6_2_conv6_2_relu_0_split
I0831 16:53:19.068389 59706 net.cpp:100] Creating Layer conv6_2_conv6_2_relu_0_split
I0831 16:53:19.068392 59706 net.cpp:434] conv6_2_conv6_2_relu_0_split <- conv6_2
I0831 16:53:19.068394 59706 net.cpp:408] conv6_2_conv6_2_relu_0_split -> conv6_2_conv6_2_relu_0_split_0
I0831 16:53:19.068399 59706 net.cpp:408] conv6_2_conv6_2_relu_0_split -> conv6_2_conv6_2_relu_0_split_1
I0831 16:53:19.068403 59706 net.cpp:408] conv6_2_conv6_2_relu_0_split -> conv6_2_conv6_2_relu_0_split_2
I0831 16:53:19.068408 59706 net.cpp:408] conv6_2_conv6_2_relu_0_split -> conv6_2_conv6_2_relu_0_split_3
I0831 16:53:19.068456 59706 net.cpp:150] Setting up conv6_2_conv6_2_relu_0_split
I0831 16:53:19.068460 59706 net.cpp:157] Top shape: 5 512 10 10 (256000)
I0831 16:53:19.068462 59706 net.cpp:157] Top shape: 5 512 10 10 (256000)
I0831 16:53:19.068464 59706 net.cpp:157] Top shape: 5 512 10 10 (256000)
I0831 16:53:19.068466 59706 net.cpp:157] Top shape: 5 512 10 10 (256000)
I0831 16:53:19.068490 59706 net.cpp:165] Memory required for data: 1174645792
I0831 16:53:19.068492 59706 layer_factory.hpp:77] Creating layer conv7_1
I0831 16:53:19.068500 59706 net.cpp:100] Creating Layer conv7_1
I0831 16:53:19.068502 59706 net.cpp:434] conv7_1 <- conv6_2_conv6_2_relu_0_split_0
I0831 16:53:19.068506 59706 net.cpp:408] conv7_1 -> conv7_1
I0831 16:53:19.068877 59706 net.cpp:150] Setting up conv7_1
I0831 16:53:19.068882 59706 net.cpp:157] Top shape: 5 128 10 10 (64000)
I0831 16:53:19.068886 59706 net.cpp:165] Memory required for data: 1174901792
I0831 16:53:19.068910 59706 layer_factory.hpp:77] Creating layer conv7_1_relu
I0831 16:53:19.068915 59706 net.cpp:100] Creating Layer conv7_1_relu
I0831 16:53:19.068918 59706 net.cpp:434] conv7_1_relu <- conv7_1
I0831 16:53:19.068922 59706 net.cpp:395] conv7_1_relu -> conv7_1 (in-place)
I0831 16:53:19.068924 59706 net.cpp:150] Setting up conv7_1_relu
I0831 16:53:19.068926 59706 net.cpp:157] Top shape: 5 128 10 10 (64000)
I0831 16:53:19.068928 59706 net.cpp:165] Memory required for data: 1175157792
I0831 16:53:19.068930 59706 layer_factory.hpp:77] Creating layer conv7_2
I0831 16:53:19.068934 59706 net.cpp:100] Creating Layer conv7_2
I0831 16:53:19.068953 59706 net.cpp:434] conv7_2 <- conv7_1
I0831 16:53:19.068956 59706 net.cpp:408] conv7_2 -> conv7_2
I0831 16:53:19.070732 59706 net.cpp:150] Setting up conv7_2
I0831 16:53:19.070745 59706 net.cpp:157] Top shape: 5 256 5 5 (32000)
I0831 16:53:19.070748 59706 net.cpp:165] Memory required for data: 1175285792
I0831 16:53:19.070752 59706 layer_factory.hpp:77] Creating layer conv7_2_relu
I0831 16:53:19.070756 59706 net.cpp:100] Creating Layer conv7_2_relu
I0831 16:53:19.070758 59706 net.cpp:434] conv7_2_relu <- conv7_2
I0831 16:53:19.070761 59706 net.cpp:395] conv7_2_relu -> conv7_2 (in-place)
I0831 16:53:19.070765 59706 net.cpp:150] Setting up conv7_2_relu
I0831 16:53:19.070787 59706 net.cpp:157] Top shape: 5 256 5 5 (32000)
I0831 16:53:19.070791 59706 net.cpp:165] Memory required for data: 1175413792
I0831 16:53:19.070792 59706 layer_factory.hpp:77] Creating layer conv7_2_conv7_2_relu_0_split
I0831 16:53:19.070797 59706 net.cpp:100] Creating Layer conv7_2_conv7_2_relu_0_split
I0831 16:53:19.070799 59706 net.cpp:434] conv7_2_conv7_2_relu_0_split <- conv7_2
I0831 16:53:19.070801 59706 net.cpp:408] conv7_2_conv7_2_relu_0_split -> conv7_2_conv7_2_relu_0_split_0
I0831 16:53:19.070806 59706 net.cpp:408] conv7_2_conv7_2_relu_0_split -> conv7_2_conv7_2_relu_0_split_1
I0831 16:53:19.070809 59706 net.cpp:408] conv7_2_conv7_2_relu_0_split -> conv7_2_conv7_2_relu_0_split_2
I0831 16:53:19.070813 59706 net.cpp:408] conv7_2_conv7_2_relu_0_split -> conv7_2_conv7_2_relu_0_split_3
I0831 16:53:19.070839 59706 net.cpp:150] Setting up conv7_2_conv7_2_relu_0_split
I0831 16:53:19.070843 59706 net.cpp:157] Top shape: 5 256 5 5 (32000)
I0831 16:53:19.070845 59706 net.cpp:157] Top shape: 5 256 5 5 (32000)
I0831 16:53:19.070847 59706 net.cpp:157] Top shape: 5 256 5 5 (32000)
I0831 16:53:19.070849 59706 net.cpp:157] Top shape: 5 256 5 5 (32000)
I0831 16:53:19.070852 59706 net.cpp:165] Memory required for data: 1175925792
I0831 16:53:19.070853 59706 layer_factory.hpp:77] Creating layer conv8_1
I0831 16:53:19.070859 59706 net.cpp:100] Creating Layer conv8_1
I0831 16:53:19.070883 59706 net.cpp:434] conv8_1 <- conv7_2_conv7_2_relu_0_split_0
I0831 16:53:19.070888 59706 net.cpp:408] conv8_1 -> conv8_1
I0831 16:53:19.071099 59706 net.cpp:150] Setting up conv8_1
I0831 16:53:19.071102 59706 net.cpp:157] Top shape: 5 128 5 5 (16000)
I0831 16:53:19.071105 59706 net.cpp:165] Memory required for data: 1175989792
I0831 16:53:19.071108 59706 layer_factory.hpp:77] Creating layer conv8_1_relu
I0831 16:53:19.071133 59706 net.cpp:100] Creating Layer conv8_1_relu
I0831 16:53:19.071135 59706 net.cpp:434] conv8_1_relu <- conv8_1
I0831 16:53:19.071138 59706 net.cpp:395] conv8_1_relu -> conv8_1 (in-place)
I0831 16:53:19.071141 59706 net.cpp:150] Setting up conv8_1_relu
I0831 16:53:19.071142 59706 net.cpp:157] Top shape: 5 128 5 5 (16000)
I0831 16:53:19.071146 59706 net.cpp:165] Memory required for data: 1176053792
I0831 16:53:19.071146 59706 layer_factory.hpp:77] Creating layer conv8_2
I0831 16:53:19.071151 59706 net.cpp:100] Creating Layer conv8_2
I0831 16:53:19.071154 59706 net.cpp:434] conv8_2 <- conv8_1
I0831 16:53:19.071156 59706 net.cpp:408] conv8_2 -> conv8_2
I0831 16:53:19.072862 59706 net.cpp:150] Setting up conv8_2
I0831 16:53:19.072873 59706 net.cpp:157] Top shape: 5 256 3 3 (11520)
I0831 16:53:19.072877 59706 net.cpp:165] Memory required for data: 1176099872
I0831 16:53:19.072881 59706 layer_factory.hpp:77] Creating layer conv8_2_relu
I0831 16:53:19.072906 59706 net.cpp:100] Creating Layer conv8_2_relu
I0831 16:53:19.072908 59706 net.cpp:434] conv8_2_relu <- conv8_2
I0831 16:53:19.072911 59706 net.cpp:395] conv8_2_relu -> conv8_2 (in-place)
I0831 16:53:19.072916 59706 net.cpp:150] Setting up conv8_2_relu
I0831 16:53:19.072919 59706 net.cpp:157] Top shape: 5 256 3 3 (11520)
I0831 16:53:19.072921 59706 net.cpp:165] Memory required for data: 1176145952
I0831 16:53:19.072922 59706 layer_factory.hpp:77] Creating layer conv8_2_conv8_2_relu_0_split
I0831 16:53:19.072926 59706 net.cpp:100] Creating Layer conv8_2_conv8_2_relu_0_split
I0831 16:53:19.072928 59706 net.cpp:434] conv8_2_conv8_2_relu_0_split <- conv8_2
I0831 16:53:19.072930 59706 net.cpp:408] conv8_2_conv8_2_relu_0_split -> conv8_2_conv8_2_relu_0_split_0
I0831 16:53:19.072935 59706 net.cpp:408] conv8_2_conv8_2_relu_0_split -> conv8_2_conv8_2_relu_0_split_1
I0831 16:53:19.072938 59706 net.cpp:408] conv8_2_conv8_2_relu_0_split -> conv8_2_conv8_2_relu_0_split_2
I0831 16:53:19.072942 59706 net.cpp:408] conv8_2_conv8_2_relu_0_split -> conv8_2_conv8_2_relu_0_split_3
I0831 16:53:19.072968 59706 net.cpp:150] Setting up conv8_2_conv8_2_relu_0_split
I0831 16:53:19.072971 59706 net.cpp:157] Top shape: 5 256 3 3 (11520)
I0831 16:53:19.072974 59706 net.cpp:157] Top shape: 5 256 3 3 (11520)
I0831 16:53:19.072991 59706 net.cpp:157] Top shape: 5 256 3 3 (11520)
I0831 16:53:19.072993 59706 net.cpp:157] Top shape: 5 256 3 3 (11520)
I0831 16:53:19.072995 59706 net.cpp:165] Memory required for data: 1176330272
I0831 16:53:19.072997 59706 layer_factory.hpp:77] Creating layer conv9_1
I0831 16:53:19.073004 59706 net.cpp:100] Creating Layer conv9_1
I0831 16:53:19.073007 59706 net.cpp:434] conv9_1 <- conv8_2_conv8_2_relu_0_split_0
I0831 16:53:19.073012 59706 net.cpp:408] conv9_1 -> conv9_1
I0831 16:53:19.073211 59706 net.cpp:150] Setting up conv9_1
I0831 16:53:19.073215 59706 net.cpp:157] Top shape: 5 128 3 3 (5760)
I0831 16:53:19.073218 59706 net.cpp:165] Memory required for data: 1176353312
I0831 16:53:19.073221 59706 layer_factory.hpp:77] Creating layer conv9_1_relu
I0831 16:53:19.073225 59706 net.cpp:100] Creating Layer conv9_1_relu
I0831 16:53:19.073226 59706 net.cpp:434] conv9_1_relu <- conv9_1
I0831 16:53:19.073230 59706 net.cpp:395] conv9_1_relu -> conv9_1 (in-place)
I0831 16:53:19.073232 59706 net.cpp:150] Setting up conv9_1_relu
I0831 16:53:19.073235 59706 net.cpp:157] Top shape: 5 128 3 3 (5760)
I0831 16:53:19.073236 59706 net.cpp:165] Memory required for data: 1176376352
I0831 16:53:19.073238 59706 layer_factory.hpp:77] Creating layer conv9_2
I0831 16:53:19.073242 59706 net.cpp:100] Creating Layer conv9_2
I0831 16:53:19.073244 59706 net.cpp:434] conv9_2 <- conv9_1
I0831 16:53:19.073247 59706 net.cpp:408] conv9_2 -> conv9_2
I0831 16:53:19.075271 59706 net.cpp:150] Setting up conv9_2
I0831 16:53:19.075320 59706 net.cpp:157] Top shape: 5 256 1 1 (1280)
I0831 16:53:19.075335 59706 net.cpp:165] Memory required for data: 1176381472
I0831 16:53:19.075349 59706 layer_factory.hpp:77] Creating layer conv9_2_relu
I0831 16:53:19.075363 59706 net.cpp:100] Creating Layer conv9_2_relu
I0831 16:53:19.075376 59706 net.cpp:434] conv9_2_relu <- conv9_2
I0831 16:53:19.075388 59706 net.cpp:395] conv9_2_relu -> conv9_2 (in-place)
I0831 16:53:19.075404 59706 net.cpp:150] Setting up conv9_2_relu
I0831 16:53:19.075414 59706 net.cpp:157] Top shape: 5 256 1 1 (1280)
I0831 16:53:19.075425 59706 net.cpp:165] Memory required for data: 1176386592
I0831 16:53:19.075434 59706 layer_factory.hpp:77] Creating layer conv9_2_conv9_2_relu_0_split
I0831 16:53:19.075446 59706 net.cpp:100] Creating Layer conv9_2_conv9_2_relu_0_split
I0831 16:53:19.075456 59706 net.cpp:434] conv9_2_conv9_2_relu_0_split <- conv9_2
I0831 16:53:19.075469 59706 net.cpp:408] conv9_2_conv9_2_relu_0_split -> conv9_2_conv9_2_relu_0_split_0
I0831 16:53:19.075482 59706 net.cpp:408] conv9_2_conv9_2_relu_0_split -> conv9_2_conv9_2_relu_0_split_1
I0831 16:53:19.075497 59706 net.cpp:408] conv9_2_conv9_2_relu_0_split -> conv9_2_conv9_2_relu_0_split_2
I0831 16:53:19.075533 59706 net.cpp:150] Setting up conv9_2_conv9_2_relu_0_split
I0831 16:53:19.075546 59706 net.cpp:157] Top shape: 5 256 1 1 (1280)
I0831 16:53:19.075557 59706 net.cpp:157] Top shape: 5 256 1 1 (1280)
I0831 16:53:19.075568 59706 net.cpp:157] Top shape: 5 256 1 1 (1280)
I0831 16:53:19.075578 59706 net.cpp:165] Memory required for data: 1176401952
I0831 16:53:19.075588 59706 layer_factory.hpp:77] Creating layer conv4_3_norm
I0831 16:53:19.075611 59706 net.cpp:100] Creating Layer conv4_3_norm
I0831 16:53:19.075623 59706 net.cpp:434] conv4_3_norm <- conv4_3_relu4_3_0_split_1
I0831 16:53:19.075634 59706 net.cpp:408] conv4_3_norm -> conv4_3_norm
I0831 16:53:19.075718 59706 net.cpp:150] Setting up conv4_3_norm
I0831 16:53:19.075731 59706 net.cpp:157] Top shape: 5 512 38 38 (3696640)
I0831 16:53:19.075742 59706 net.cpp:165] Memory required for data: 1191188512
I0831 16:53:19.075753 59706 layer_factory.hpp:77] Creating layer conv4_3_norm_conv4_3_norm_0_split
I0831 16:53:19.075768 59706 net.cpp:100] Creating Layer conv4_3_norm_conv4_3_norm_0_split
I0831 16:53:19.075778 59706 net.cpp:434] conv4_3_norm_conv4_3_norm_0_split <- conv4_3_norm
I0831 16:53:19.075790 59706 net.cpp:408] conv4_3_norm_conv4_3_norm_0_split -> conv4_3_norm_conv4_3_norm_0_split_0
I0831 16:53:19.075811 59706 net.cpp:408] conv4_3_norm_conv4_3_norm_0_split -> conv4_3_norm_conv4_3_norm_0_split_1
I0831 16:53:19.075829 59706 net.cpp:408] conv4_3_norm_conv4_3_norm_0_split -> conv4_3_norm_conv4_3_norm_0_split_2
I0831 16:53:19.075860 59706 net.cpp:150] Setting up conv4_3_norm_conv4_3_norm_0_split
I0831 16:53:19.075875 59706 net.cpp:157] Top shape: 5 512 38 38 (3696640)
I0831 16:53:19.075886 59706 net.cpp:157] Top shape: 5 512 38 38 (3696640)
I0831 16:53:19.075896 59706 net.cpp:157] Top shape: 5 512 38 38 (3696640)
I0831 16:53:19.075906 59706 net.cpp:165] Memory required for data: 1235548192
I0831 16:53:19.075917 59706 layer_factory.hpp:77] Creating layer conv4_3_norm_mbox_loc
I0831 16:53:19.075933 59706 net.cpp:100] Creating Layer conv4_3_norm_mbox_loc
I0831 16:53:19.075943 59706 net.cpp:434] conv4_3_norm_mbox_loc <- conv4_3_norm_conv4_3_norm_0_split_0
I0831 16:53:19.075955 59706 net.cpp:408] conv4_3_norm_mbox_loc -> conv4_3_norm_mbox_loc
I0831 16:53:19.076411 59706 net.cpp:150] Setting up conv4_3_norm_mbox_loc
I0831 16:53:19.076417 59706 net.cpp:157] Top shape: 5 16 38 38 (115520)
I0831 16:53:19.076421 59706 net.cpp:165] Memory required for data: 1236010272
I0831 16:53:19.076426 59706 layer_factory.hpp:77] Creating layer conv4_3_norm_mbox_loc_perm
I0831 16:53:19.076434 59706 net.cpp:100] Creating Layer conv4_3_norm_mbox_loc_perm
I0831 16:53:19.076438 59706 net.cpp:434] conv4_3_norm_mbox_loc_perm <- conv4_3_norm_mbox_loc
I0831 16:53:19.076445 59706 net.cpp:408] conv4_3_norm_mbox_loc_perm -> conv4_3_norm_mbox_loc_perm
I0831 16:53:19.076488 59706 net.cpp:150] Setting up conv4_3_norm_mbox_loc_perm
I0831 16:53:19.076493 59706 net.cpp:157] Top shape: 5 38 38 16 (115520)
I0831 16:53:19.076496 59706 net.cpp:165] Memory required for data: 1236472352
I0831 16:53:19.076499 59706 layer_factory.hpp:77] Creating layer conv4_3_norm_mbox_loc_flat
I0831 16:53:19.076508 59706 net.cpp:100] Creating Layer conv4_3_norm_mbox_loc_flat
I0831 16:53:19.076514 59706 net.cpp:434] conv4_3_norm_mbox_loc_flat <- conv4_3_norm_mbox_loc_perm
I0831 16:53:19.076519 59706 net.cpp:408] conv4_3_norm_mbox_loc_flat -> conv4_3_norm_mbox_loc_flat
I0831 16:53:19.076539 59706 net.cpp:150] Setting up conv4_3_norm_mbox_loc_flat
I0831 16:53:19.076543 59706 net.cpp:157] Top shape: 5 23104 (115520)
I0831 16:53:19.076548 59706 net.cpp:165] Memory required for data: 1236934432
I0831 16:53:19.076551 59706 layer_factory.hpp:77] Creating layer conv4_3_norm_mbox_conf
I0831 16:53:19.076562 59706 net.cpp:100] Creating Layer conv4_3_norm_mbox_conf
I0831 16:53:19.076566 59706 net.cpp:434] conv4_3_norm_mbox_conf <- conv4_3_norm_conv4_3_norm_0_split_1
I0831 16:53:19.076572 59706 net.cpp:408] conv4_3_norm_mbox_conf -> conv4_3_norm_mbox_conf
I0831 16:53:19.078693 59706 net.cpp:150] Setting up conv4_3_norm_mbox_conf
I0831 16:53:19.078706 59706 net.cpp:157] Top shape: 5 84 38 38 (606480)
I0831 16:53:19.078711 59706 net.cpp:165] Memory required for data: 1239360352
I0831 16:53:19.078717 59706 layer_factory.hpp:77] Creating layer conv4_3_norm_mbox_conf_perm
I0831 16:53:19.078723 59706 net.cpp:100] Creating Layer conv4_3_norm_mbox_conf_perm
I0831 16:53:19.078727 59706 net.cpp:434] conv4_3_norm_mbox_conf_perm <- conv4_3_norm_mbox_conf
I0831 16:53:19.078734 59706 net.cpp:408] conv4_3_norm_mbox_conf_perm -> conv4_3_norm_mbox_conf_perm
I0831 16:53:19.078800 59706 net.cpp:150] Setting up conv4_3_norm_mbox_conf_perm
I0831 16:53:19.078806 59706 net.cpp:157] Top shape: 5 38 38 84 (606480)
I0831 16:53:19.078811 59706 net.cpp:165] Memory required for data: 1241786272
I0831 16:53:19.078814 59706 layer_factory.hpp:77] Creating layer conv4_3_norm_mbox_conf_flat
I0831 16:53:19.078819 59706 net.cpp:100] Creating Layer conv4_3_norm_mbox_conf_flat
I0831 16:53:19.078824 59706 net.cpp:434] conv4_3_norm_mbox_conf_flat <- conv4_3_norm_mbox_conf_perm
I0831 16:53:19.078828 59706 net.cpp:408] conv4_3_norm_mbox_conf_flat -> conv4_3_norm_mbox_conf_flat
I0831 16:53:19.078843 59706 net.cpp:150] Setting up conv4_3_norm_mbox_conf_flat
I0831 16:53:19.078847 59706 net.cpp:157] Top shape: 5 121296 (606480)
I0831 16:53:19.078851 59706 net.cpp:165] Memory required for data: 1244212192
I0831 16:53:19.078872 59706 layer_factory.hpp:77] Creating layer conv4_3_norm_mbox_priorbox
I0831 16:53:19.078884 59706 net.cpp:100] Creating Layer conv4_3_norm_mbox_priorbox
I0831 16:53:19.078888 59706 net.cpp:434] conv4_3_norm_mbox_priorbox <- conv4_3_norm_conv4_3_norm_0_split_2
I0831 16:53:19.078893 59706 net.cpp:434] conv4_3_norm_mbox_priorbox <- data_data_0_split_1
I0831 16:53:19.078898 59706 net.cpp:408] conv4_3_norm_mbox_priorbox -> conv4_3_norm_mbox_priorbox
I0831 16:53:19.078918 59706 net.cpp:150] Setting up conv4_3_norm_mbox_priorbox
I0831 16:53:19.078923 59706 net.cpp:157] Top shape: 1 2 23104 (46208)
I0831 16:53:19.078928 59706 net.cpp:165] Memory required for data: 1244397024
I0831 16:53:19.078931 59706 layer_factory.hpp:77] Creating layer fc7_mbox_loc
I0831 16:53:19.078940 59706 net.cpp:100] Creating Layer fc7_mbox_loc
I0831 16:53:19.078945 59706 net.cpp:434] fc7_mbox_loc <- fc7_relu7_0_split_1
I0831 16:53:19.078955 59706 net.cpp:408] fc7_mbox_loc -> fc7_mbox_loc
I0831 16:53:19.079842 59706 net.cpp:150] Setting up fc7_mbox_loc
I0831 16:53:19.079849 59706 net.cpp:157] Top shape: 5 24 19 19 (43320)
I0831 16:53:19.079854 59706 net.cpp:165] Memory required for data: 1244570304
I0831 16:53:19.079859 59706 layer_factory.hpp:77] Creating layer fc7_mbox_loc_perm
I0831 16:53:19.079864 59706 net.cpp:100] Creating Layer fc7_mbox_loc_perm
I0831 16:53:19.079869 59706 net.cpp:434] fc7_mbox_loc_perm <- fc7_mbox_loc
I0831 16:53:19.079874 59706 net.cpp:408] fc7_mbox_loc_perm -> fc7_mbox_loc_perm
I0831 16:53:19.079916 59706 net.cpp:150] Setting up fc7_mbox_loc_perm
I0831 16:53:19.079921 59706 net.cpp:157] Top shape: 5 19 19 24 (43320)
I0831 16:53:19.079926 59706 net.cpp:165] Memory required for data: 1244743584
I0831 16:53:19.079929 59706 layer_factory.hpp:77] Creating layer fc7_mbox_loc_flat
I0831 16:53:19.079934 59706 net.cpp:100] Creating Layer fc7_mbox_loc_flat
I0831 16:53:19.079938 59706 net.cpp:434] fc7_mbox_loc_flat <- fc7_mbox_loc_perm
I0831 16:53:19.079944 59706 net.cpp:408] fc7_mbox_loc_flat -> fc7_mbox_loc_flat
I0831 16:53:19.079960 59706 net.cpp:150] Setting up fc7_mbox_loc_flat
I0831 16:53:19.079965 59706 net.cpp:157] Top shape: 5 8664 (43320)
I0831 16:53:19.079968 59706 net.cpp:165] Memory required for data: 1244916864
I0831 16:53:19.079972 59706 layer_factory.hpp:77] Creating layer fc7_mbox_conf
I0831 16:53:19.079980 59706 net.cpp:100] Creating Layer fc7_mbox_conf
I0831 16:53:19.079984 59706 net.cpp:434] fc7_mbox_conf <- fc7_relu7_0_split_2
I0831 16:53:19.079990 59706 net.cpp:408] fc7_mbox_conf -> fc7_mbox_conf
I0831 16:53:19.089133 59706 net.cpp:150] Setting up fc7_mbox_conf
I0831 16:53:19.089200 59706 net.cpp:157] Top shape: 5 126 19 19 (227430)
I0831 16:53:19.089221 59706 net.cpp:165] Memory required for data: 1245826584
I0831 16:53:19.089237 59706 layer_factory.hpp:77] Creating layer fc7_mbox_conf_perm
I0831 16:53:19.089257 59706 net.cpp:100] Creating Layer fc7_mbox_conf_perm
I0831 16:53:19.089272 59706 net.cpp:434] fc7_mbox_conf_perm <- fc7_mbox_conf
I0831 16:53:19.089287 59706 net.cpp:408] fc7_mbox_conf_perm -> fc7_mbox_conf_perm
I0831 16:53:19.089370 59706 net.cpp:150] Setting up fc7_mbox_conf_perm
I0831 16:53:19.089385 59706 net.cpp:157] Top shape: 5 19 19 126 (227430)
I0831 16:53:19.089397 59706 net.cpp:165] Memory required for data: 1246736304
I0831 16:53:19.089408 59706 layer_factory.hpp:77] Creating layer fc7_mbox_conf_flat
I0831 16:53:19.089422 59706 net.cpp:100] Creating Layer fc7_mbox_conf_flat
I0831 16:53:19.089433 59706 net.cpp:434] fc7_mbox_conf_flat <- fc7_mbox_conf_perm
I0831 16:53:19.089447 59706 net.cpp:408] fc7_mbox_conf_flat -> fc7_mbox_conf_flat
I0831 16:53:19.089474 59706 net.cpp:150] Setting up fc7_mbox_conf_flat
I0831 16:53:19.089488 59706 net.cpp:157] Top shape: 5 45486 (227430)
I0831 16:53:19.089499 59706 net.cpp:165] Memory required for data: 1247646024
I0831 16:53:19.089510 59706 layer_factory.hpp:77] Creating layer fc7_mbox_priorbox
I0831 16:53:19.089525 59706 net.cpp:100] Creating Layer fc7_mbox_priorbox
I0831 16:53:19.089548 59706 net.cpp:434] fc7_mbox_priorbox <- fc7_relu7_0_split_3
I0831 16:53:19.089581 59706 net.cpp:434] fc7_mbox_priorbox <- data_data_0_split_2
I0831 16:53:19.089597 59706 net.cpp:408] fc7_mbox_priorbox -> fc7_mbox_priorbox
I0831 16:53:19.089627 59706 net.cpp:150] Setting up fc7_mbox_priorbox
I0831 16:53:19.089641 59706 net.cpp:157] Top shape: 1 2 8664 (17328)
I0831 16:53:19.089653 59706 net.cpp:165] Memory required for data: 1247715336
I0831 16:53:19.089664 59706 layer_factory.hpp:77] Creating layer conv6_2_mbox_loc
I0831 16:53:19.089682 59706 net.cpp:100] Creating Layer conv6_2_mbox_loc
I0831 16:53:19.089695 59706 net.cpp:434] conv6_2_mbox_loc <- conv6_2_conv6_2_relu_0_split_1
I0831 16:53:19.089709 59706 net.cpp:408] conv6_2_mbox_loc -> conv6_2_mbox_loc
I0831 16:53:19.090620 59706 net.cpp:150] Setting up conv6_2_mbox_loc
I0831 16:53:19.090642 59706 net.cpp:157] Top shape: 5 24 10 10 (12000)
I0831 16:53:19.090656 59706 net.cpp:165] Memory required for data: 1247763336
I0831 16:53:19.090670 59706 layer_factory.hpp:77] Creating layer conv6_2_mbox_loc_perm
I0831 16:53:19.090685 59706 net.cpp:100] Creating Layer conv6_2_mbox_loc_perm
I0831 16:53:19.090698 59706 net.cpp:434] conv6_2_mbox_loc_perm <- conv6_2_mbox_loc
I0831 16:53:19.090710 59706 net.cpp:408] conv6_2_mbox_loc_perm -> conv6_2_mbox_loc_perm
I0831 16:53:19.090782 59706 net.cpp:150] Setting up conv6_2_mbox_loc_perm
I0831 16:53:19.090795 59706 net.cpp:157] Top shape: 5 10 10 24 (12000)
I0831 16:53:19.090808 59706 net.cpp:165] Memory required for data: 1247811336
I0831 16:53:19.090819 59706 layer_factory.hpp:77] Creating layer conv6_2_mbox_loc_flat
I0831 16:53:19.090833 59706 net.cpp:100] Creating Layer conv6_2_mbox_loc_flat
I0831 16:53:19.090845 59706 net.cpp:434] conv6_2_mbox_loc_flat <- conv6_2_mbox_loc_perm
I0831 16:53:19.090858 59706 net.cpp:408] conv6_2_mbox_loc_flat -> conv6_2_mbox_loc_flat
I0831 16:53:19.090883 59706 net.cpp:150] Setting up conv6_2_mbox_loc_flat
I0831 16:53:19.090896 59706 net.cpp:157] Top shape: 5 2400 (12000)
I0831 16:53:19.090909 59706 net.cpp:165] Memory required for data: 1247859336
I0831 16:53:19.090919 59706 layer_factory.hpp:77] Creating layer conv6_2_mbox_conf
I0831 16:53:19.090935 59706 net.cpp:100] Creating Layer conv6_2_mbox_conf
I0831 16:53:19.090947 59706 net.cpp:434] conv6_2_mbox_conf <- conv6_2_conv6_2_relu_0_split_2
I0831 16:53:19.090961 59706 net.cpp:408] conv6_2_mbox_conf -> conv6_2_mbox_conf
I0831 16:53:19.095944 59706 net.cpp:150] Setting up conv6_2_mbox_conf
I0831 16:53:19.095966 59706 net.cpp:157] Top shape: 5 126 10 10 (63000)
I0831 16:53:19.095973 59706 net.cpp:165] Memory required for data: 1248111336
I0831 16:53:19.095980 59706 layer_factory.hpp:77] Creating layer conv6_2_mbox_conf_perm
I0831 16:53:19.095988 59706 net.cpp:100] Creating Layer conv6_2_mbox_conf_perm
I0831 16:53:19.095993 59706 net.cpp:434] conv6_2_mbox_conf_perm <- conv6_2_mbox_conf
I0831 16:53:19.096002 59706 net.cpp:408] conv6_2_mbox_conf_perm -> conv6_2_mbox_conf_perm
I0831 16:53:19.096076 59706 net.cpp:150] Setting up conv6_2_mbox_conf_perm
I0831 16:53:19.096081 59706 net.cpp:157] Top shape: 5 10 10 126 (63000)
I0831 16:53:19.096083 59706 net.cpp:165] Memory required for data: 1248363336
I0831 16:53:19.096086 59706 layer_factory.hpp:77] Creating layer conv6_2_mbox_conf_flat
I0831 16:53:19.096092 59706 net.cpp:100] Creating Layer conv6_2_mbox_conf_flat
I0831 16:53:19.096096 59706 net.cpp:434] conv6_2_mbox_conf_flat <- conv6_2_mbox_conf_perm
I0831 16:53:19.096099 59706 net.cpp:408] conv6_2_mbox_conf_flat -> conv6_2_mbox_conf_flat
I0831 16:53:19.096114 59706 net.cpp:150] Setting up conv6_2_mbox_conf_flat
I0831 16:53:19.096118 59706 net.cpp:157] Top shape: 5 12600 (63000)
I0831 16:53:19.096122 59706 net.cpp:165] Memory required for data: 1248615336
I0831 16:53:19.096124 59706 layer_factory.hpp:77] Creating layer conv6_2_mbox_priorbox
I0831 16:53:19.096132 59706 net.cpp:100] Creating Layer conv6_2_mbox_priorbox
I0831 16:53:19.096135 59706 net.cpp:434] conv6_2_mbox_priorbox <- conv6_2_conv6_2_relu_0_split_3
I0831 16:53:19.096138 59706 net.cpp:434] conv6_2_mbox_priorbox <- data_data_0_split_3
I0831 16:53:19.096164 59706 net.cpp:408] conv6_2_mbox_priorbox -> conv6_2_mbox_priorbox
I0831 16:53:19.096189 59706 net.cpp:150] Setting up conv6_2_mbox_priorbox
I0831 16:53:19.096194 59706 net.cpp:157] Top shape: 1 2 2400 (4800)
I0831 16:53:19.096196 59706 net.cpp:165] Memory required for data: 1248634536
I0831 16:53:19.096199 59706 layer_factory.hpp:77] Creating layer conv7_2_mbox_loc
I0831 16:53:19.096207 59706 net.cpp:100] Creating Layer conv7_2_mbox_loc
I0831 16:53:19.096211 59706 net.cpp:434] conv7_2_mbox_loc <- conv7_2_conv7_2_relu_0_split_1
I0831 16:53:19.096217 59706 net.cpp:408] conv7_2_mbox_loc -> conv7_2_mbox_loc
I0831 16:53:19.096650 59706 net.cpp:150] Setting up conv7_2_mbox_loc
I0831 16:53:19.096657 59706 net.cpp:157] Top shape: 5 24 5 5 (3000)
I0831 16:53:19.096659 59706 net.cpp:165] Memory required for data: 1248646536
I0831 16:53:19.096663 59706 layer_factory.hpp:77] Creating layer conv7_2_mbox_loc_perm
I0831 16:53:19.096669 59706 net.cpp:100] Creating Layer conv7_2_mbox_loc_perm
I0831 16:53:19.096673 59706 net.cpp:434] conv7_2_mbox_loc_perm <- conv7_2_mbox_loc
I0831 16:53:19.096679 59706 net.cpp:408] conv7_2_mbox_loc_perm -> conv7_2_mbox_loc_perm
I0831 16:53:19.096724 59706 net.cpp:150] Setting up conv7_2_mbox_loc_perm
I0831 16:53:19.096729 59706 net.cpp:157] Top shape: 5 5 5 24 (3000)
I0831 16:53:19.096732 59706 net.cpp:165] Memory required for data: 1248658536
I0831 16:53:19.096735 59706 layer_factory.hpp:77] Creating layer conv7_2_mbox_loc_flat
I0831 16:53:19.096740 59706 net.cpp:100] Creating Layer conv7_2_mbox_loc_flat
I0831 16:53:19.096742 59706 net.cpp:434] conv7_2_mbox_loc_flat <- conv7_2_mbox_loc_perm
I0831 16:53:19.096746 59706 net.cpp:408] conv7_2_mbox_loc_flat -> conv7_2_mbox_loc_flat
I0831 16:53:19.096757 59706 net.cpp:150] Setting up conv7_2_mbox_loc_flat
I0831 16:53:19.096761 59706 net.cpp:157] Top shape: 5 600 (3000)
I0831 16:53:19.096765 59706 net.cpp:165] Memory required for data: 1248670536
I0831 16:53:19.096767 59706 layer_factory.hpp:77] Creating layer conv7_2_mbox_conf
I0831 16:53:19.096773 59706 net.cpp:100] Creating Layer conv7_2_mbox_conf
I0831 16:53:19.096777 59706 net.cpp:434] conv7_2_mbox_conf <- conv7_2_conv7_2_relu_0_split_2
I0831 16:53:19.096782 59706 net.cpp:408] conv7_2_mbox_conf -> conv7_2_mbox_conf
I0831 16:53:19.098894 59706 net.cpp:150] Setting up conv7_2_mbox_conf
I0831 16:53:19.098903 59706 net.cpp:157] Top shape: 5 126 5 5 (15750)
I0831 16:53:19.098906 59706 net.cpp:165] Memory required for data: 1248733536
I0831 16:53:19.098910 59706 layer_factory.hpp:77] Creating layer conv7_2_mbox_conf_perm
I0831 16:53:19.098915 59706 net.cpp:100] Creating Layer conv7_2_mbox_conf_perm
I0831 16:53:19.098917 59706 net.cpp:434] conv7_2_mbox_conf_perm <- conv7_2_mbox_conf
I0831 16:53:19.098922 59706 net.cpp:408] conv7_2_mbox_conf_perm -> conv7_2_mbox_conf_perm
I0831 16:53:19.098958 59706 net.cpp:150] Setting up conv7_2_mbox_conf_perm
I0831 16:53:19.098963 59706 net.cpp:157] Top shape: 5 5 5 126 (15750)
I0831 16:53:19.098965 59706 net.cpp:165] Memory required for data: 1248796536
I0831 16:53:19.098966 59706 layer_factory.hpp:77] Creating layer conv7_2_mbox_conf_flat
I0831 16:53:19.098970 59706 net.cpp:100] Creating Layer conv7_2_mbox_conf_flat
I0831 16:53:19.098973 59706 net.cpp:434] conv7_2_mbox_conf_flat <- conv7_2_mbox_conf_perm
I0831 16:53:19.098975 59706 net.cpp:408] conv7_2_mbox_conf_flat -> conv7_2_mbox_conf_flat
I0831 16:53:19.098985 59706 net.cpp:150] Setting up conv7_2_mbox_conf_flat
I0831 16:53:19.098989 59706 net.cpp:157] Top shape: 5 3150 (15750)
I0831 16:53:19.098991 59706 net.cpp:165] Memory required for data: 1248859536
I0831 16:53:19.098994 59706 layer_factory.hpp:77] Creating layer conv7_2_mbox_priorbox
I0831 16:53:19.098997 59706 net.cpp:100] Creating Layer conv7_2_mbox_priorbox
I0831 16:53:19.098999 59706 net.cpp:434] conv7_2_mbox_priorbox <- conv7_2_conv7_2_relu_0_split_3
I0831 16:53:19.099002 59706 net.cpp:434] conv7_2_mbox_priorbox <- data_data_0_split_4
I0831 16:53:19.099005 59706 net.cpp:408] conv7_2_mbox_priorbox -> conv7_2_mbox_priorbox
I0831 16:53:19.099030 59706 net.cpp:150] Setting up conv7_2_mbox_priorbox
I0831 16:53:19.099033 59706 net.cpp:157] Top shape: 1 2 600 (1200)
I0831 16:53:19.099035 59706 net.cpp:165] Memory required for data: 1248864336
I0831 16:53:19.099037 59706 layer_factory.hpp:77] Creating layer conv8_2_mbox_loc
I0831 16:53:19.099046 59706 net.cpp:100] Creating Layer conv8_2_mbox_loc
I0831 16:53:19.099064 59706 net.cpp:434] conv8_2_mbox_loc <- conv8_2_conv8_2_relu_0_split_1
I0831 16:53:19.099076 59706 net.cpp:408] conv8_2_mbox_loc -> conv8_2_mbox_loc
I0831 16:53:19.099426 59706 net.cpp:150] Setting up conv8_2_mbox_loc
I0831 16:53:19.099445 59706 net.cpp:157] Top shape: 5 16 3 3 (720)
I0831 16:53:19.099457 59706 net.cpp:165] Memory required for data: 1248867216
I0831 16:53:19.099476 59706 layer_factory.hpp:77] Creating layer conv8_2_mbox_loc_perm
I0831 16:53:19.099489 59706 net.cpp:100] Creating Layer conv8_2_mbox_loc_perm
I0831 16:53:19.099501 59706 net.cpp:434] conv8_2_mbox_loc_perm <- conv8_2_mbox_loc
I0831 16:53:19.099514 59706 net.cpp:408] conv8_2_mbox_loc_perm -> conv8_2_mbox_loc_perm
I0831 16:53:19.099578 59706 net.cpp:150] Setting up conv8_2_mbox_loc_perm
I0831 16:53:19.099593 59706 net.cpp:157] Top shape: 5 3 3 16 (720)
I0831 16:53:19.099599 59706 net.cpp:165] Memory required for data: 1248870096
I0831 16:53:19.099602 59706 layer_factory.hpp:77] Creating layer conv8_2_mbox_loc_flat
I0831 16:53:19.099611 59706 net.cpp:100] Creating Layer conv8_2_mbox_loc_flat
I0831 16:53:19.099617 59706 net.cpp:434] conv8_2_mbox_loc_flat <- conv8_2_mbox_loc_perm
I0831 16:53:19.099622 59706 net.cpp:408] conv8_2_mbox_loc_flat -> conv8_2_mbox_loc_flat
I0831 16:53:19.099646 59706 net.cpp:150] Setting up conv8_2_mbox_loc_flat
I0831 16:53:19.099653 59706 net.cpp:157] Top shape: 5 144 (720)
I0831 16:53:19.099658 59706 net.cpp:165] Memory required for data: 1248872976
I0831 16:53:19.099663 59706 layer_factory.hpp:77] Creating layer conv8_2_mbox_conf
I0831 16:53:19.099674 59706 net.cpp:100] Creating Layer conv8_2_mbox_conf
I0831 16:53:19.099680 59706 net.cpp:434] conv8_2_mbox_conf <- conv8_2_conv8_2_relu_0_split_2
I0831 16:53:19.099689 59706 net.cpp:408] conv8_2_mbox_conf -> conv8_2_mbox_conf
I0831 16:53:19.100647 59706 net.cpp:150] Setting up conv8_2_mbox_conf
I0831 16:53:19.100659 59706 net.cpp:157] Top shape: 5 84 3 3 (3780)
I0831 16:53:19.100663 59706 net.cpp:165] Memory required for data: 1248888096
I0831 16:53:19.100669 59706 layer_factory.hpp:77] Creating layer conv8_2_mbox_conf_perm
I0831 16:53:19.100677 59706 net.cpp:100] Creating Layer conv8_2_mbox_conf_perm
I0831 16:53:19.100682 59706 net.cpp:434] conv8_2_mbox_conf_perm <- conv8_2_mbox_conf
I0831 16:53:19.100687 59706 net.cpp:408] conv8_2_mbox_conf_perm -> conv8_2_mbox_conf_perm
I0831 16:53:19.100746 59706 net.cpp:150] Setting up conv8_2_mbox_conf_perm
I0831 16:53:19.100752 59706 net.cpp:157] Top shape: 5 3 3 84 (3780)
I0831 16:53:19.100756 59706 net.cpp:165] Memory required for data: 1248903216
I0831 16:53:19.100759 59706 layer_factory.hpp:77] Creating layer conv8_2_mbox_conf_flat
I0831 16:53:19.100767 59706 net.cpp:100] Creating Layer conv8_2_mbox_conf_flat
I0831 16:53:19.100770 59706 net.cpp:434] conv8_2_mbox_conf_flat <- conv8_2_mbox_conf_perm
I0831 16:53:19.100775 59706 net.cpp:408] conv8_2_mbox_conf_flat -> conv8_2_mbox_conf_flat
I0831 16:53:19.100792 59706 net.cpp:150] Setting up conv8_2_mbox_conf_flat
I0831 16:53:19.100796 59706 net.cpp:157] Top shape: 5 756 (3780)
I0831 16:53:19.100800 59706 net.cpp:165] Memory required for data: 1248918336
I0831 16:53:19.100802 59706 layer_factory.hpp:77] Creating layer conv8_2_mbox_priorbox
I0831 16:53:19.100809 59706 net.cpp:100] Creating Layer conv8_2_mbox_priorbox
I0831 16:53:19.100812 59706 net.cpp:434] conv8_2_mbox_priorbox <- conv8_2_conv8_2_relu_0_split_3
I0831 16:53:19.100816 59706 net.cpp:434] conv8_2_mbox_priorbox <- data_data_0_split_5
I0831 16:53:19.100819 59706 net.cpp:408] conv8_2_mbox_priorbox -> conv8_2_mbox_priorbox
I0831 16:53:19.100839 59706 net.cpp:150] Setting up conv8_2_mbox_priorbox
I0831 16:53:19.100843 59706 net.cpp:157] Top shape: 1 2 144 (288)
I0831 16:53:19.100868 59706 net.cpp:165] Memory required for data: 1248919488
I0831 16:53:19.100872 59706 layer_factory.hpp:77] Creating layer conv9_2_mbox_loc
I0831 16:53:19.100883 59706 net.cpp:100] Creating Layer conv9_2_mbox_loc
I0831 16:53:19.100886 59706 net.cpp:434] conv9_2_mbox_loc <- conv9_2_conv9_2_relu_0_split_0
I0831 16:53:19.100893 59706 net.cpp:408] conv9_2_mbox_loc -> conv9_2_mbox_loc
I0831 16:53:19.101286 59706 net.cpp:150] Setting up conv9_2_mbox_loc
I0831 16:53:19.101294 59706 net.cpp:157] Top shape: 5 16 1 1 (80)
I0831 16:53:19.101298 59706 net.cpp:165] Memory required for data: 1248919808
I0831 16:53:19.101305 59706 layer_factory.hpp:77] Creating layer conv9_2_mbox_loc_perm
I0831 16:53:19.101311 59706 net.cpp:100] Creating Layer conv9_2_mbox_loc_perm
I0831 16:53:19.101315 59706 net.cpp:434] conv9_2_mbox_loc_perm <- conv9_2_mbox_loc
I0831 16:53:19.101320 59706 net.cpp:408] conv9_2_mbox_loc_perm -> conv9_2_mbox_loc_perm
I0831 16:53:19.101372 59706 net.cpp:150] Setting up conv9_2_mbox_loc_perm
I0831 16:53:19.101379 59706 net.cpp:157] Top shape: 5 1 1 16 (80)
I0831 16:53:19.101383 59706 net.cpp:165] Memory required for data: 1248920128
I0831 16:53:19.101385 59706 layer_factory.hpp:77] Creating layer conv9_2_mbox_loc_flat
I0831 16:53:19.101389 59706 net.cpp:100] Creating Layer conv9_2_mbox_loc_flat
I0831 16:53:19.101392 59706 net.cpp:434] conv9_2_mbox_loc_flat <- conv9_2_mbox_loc_perm
I0831 16:53:19.101398 59706 net.cpp:408] conv9_2_mbox_loc_flat -> conv9_2_mbox_loc_flat
I0831 16:53:19.101414 59706 net.cpp:150] Setting up conv9_2_mbox_loc_flat
I0831 16:53:19.101419 59706 net.cpp:157] Top shape: 5 16 (80)
I0831 16:53:19.101423 59706 net.cpp:165] Memory required for data: 1248920448
I0831 16:53:19.101425 59706 layer_factory.hpp:77] Creating layer conv9_2_mbox_conf
I0831 16:53:19.101434 59706 net.cpp:100] Creating Layer conv9_2_mbox_conf
I0831 16:53:19.101439 59706 net.cpp:434] conv9_2_mbox_conf <- conv9_2_conv9_2_relu_0_split_1
I0831 16:53:19.101444 59706 net.cpp:408] conv9_2_mbox_conf -> conv9_2_mbox_conf
I0831 16:53:19.102522 59706 net.cpp:150] Setting up conv9_2_mbox_conf
I0831 16:53:19.102548 59706 net.cpp:157] Top shape: 5 84 1 1 (420)
I0831 16:53:19.102555 59706 net.cpp:165] Memory required for data: 1248922128
I0831 16:53:19.102563 59706 layer_factory.hpp:77] Creating layer conv9_2_mbox_conf_perm
I0831 16:53:19.102574 59706 net.cpp:100] Creating Layer conv9_2_mbox_conf_perm
I0831 16:53:19.102581 59706 net.cpp:434] conv9_2_mbox_conf_perm <- conv9_2_mbox_conf
I0831 16:53:19.102592 59706 net.cpp:408] conv9_2_mbox_conf_perm -> conv9_2_mbox_conf_perm
I0831 16:53:19.102661 59706 net.cpp:150] Setting up conv9_2_mbox_conf_perm
I0831 16:53:19.102667 59706 net.cpp:157] Top shape: 5 1 1 84 (420)
I0831 16:53:19.102672 59706 net.cpp:165] Memory required for data: 1248923808
I0831 16:53:19.102675 59706 layer_factory.hpp:77] Creating layer conv9_2_mbox_conf_flat
I0831 16:53:19.102682 59706 net.cpp:100] Creating Layer conv9_2_mbox_conf_flat
I0831 16:53:19.102687 59706 net.cpp:434] conv9_2_mbox_conf_flat <- conv9_2_mbox_conf_perm
I0831 16:53:19.102692 59706 net.cpp:408] conv9_2_mbox_conf_flat -> conv9_2_mbox_conf_flat
I0831 16:53:19.102710 59706 net.cpp:150] Setting up conv9_2_mbox_conf_flat
I0831 16:53:19.102715 59706 net.cpp:157] Top shape: 5 84 (420)
I0831 16:53:19.102718 59706 net.cpp:165] Memory required for data: 1248925488
I0831 16:53:19.102720 59706 layer_factory.hpp:77] Creating layer conv9_2_mbox_priorbox
I0831 16:53:19.102727 59706 net.cpp:100] Creating Layer conv9_2_mbox_priorbox
I0831 16:53:19.102731 59706 net.cpp:434] conv9_2_mbox_priorbox <- conv9_2_conv9_2_relu_0_split_2
I0831 16:53:19.102735 59706 net.cpp:434] conv9_2_mbox_priorbox <- data_data_0_split_6
I0831 16:53:19.102739 59706 net.cpp:408] conv9_2_mbox_priorbox -> conv9_2_mbox_priorbox
I0831 16:53:19.102759 59706 net.cpp:150] Setting up conv9_2_mbox_priorbox
I0831 16:53:19.102766 59706 net.cpp:157] Top shape: 1 2 16 (32)
I0831 16:53:19.102769 59706 net.cpp:165] Memory required for data: 1248925616
I0831 16:53:19.102772 59706 layer_factory.hpp:77] Creating layer mbox_loc
I0831 16:53:19.102802 59706 net.cpp:100] Creating Layer mbox_loc
I0831 16:53:19.102810 59706 net.cpp:434] mbox_loc <- conv4_3_norm_mbox_loc_flat
I0831 16:53:19.102815 59706 net.cpp:434] mbox_loc <- fc7_mbox_loc_flat
I0831 16:53:19.102820 59706 net.cpp:434] mbox_loc <- conv6_2_mbox_loc_flat
I0831 16:53:19.102825 59706 net.cpp:434] mbox_loc <- conv7_2_mbox_loc_flat
I0831 16:53:19.102829 59706 net.cpp:434] mbox_loc <- conv8_2_mbox_loc_flat
I0831 16:53:19.102833 59706 net.cpp:434] mbox_loc <- conv9_2_mbox_loc_flat
I0831 16:53:19.102839 59706 net.cpp:408] mbox_loc -> mbox_loc
I0831 16:53:19.102861 59706 net.cpp:150] Setting up mbox_loc
I0831 16:53:19.102866 59706 net.cpp:157] Top shape: 5 34928 (174640)
I0831 16:53:19.102872 59706 net.cpp:165] Memory required for data: 1249624176
I0831 16:53:19.102875 59706 layer_factory.hpp:77] Creating layer mbox_conf
I0831 16:53:19.102882 59706 net.cpp:100] Creating Layer mbox_conf
I0831 16:53:19.102887 59706 net.cpp:434] mbox_conf <- conv4_3_norm_mbox_conf_flat
I0831 16:53:19.102891 59706 net.cpp:434] mbox_conf <- fc7_mbox_conf_flat
I0831 16:53:19.102895 59706 net.cpp:434] mbox_conf <- conv6_2_mbox_conf_flat
I0831 16:53:19.102900 59706 net.cpp:434] mbox_conf <- conv7_2_mbox_conf_flat
I0831 16:53:19.102903 59706 net.cpp:434] mbox_conf <- conv8_2_mbox_conf_flat
I0831 16:53:19.102907 59706 net.cpp:434] mbox_conf <- conv9_2_mbox_conf_flat
I0831 16:53:19.102912 59706 net.cpp:408] mbox_conf -> mbox_conf
I0831 16:53:19.102928 59706 net.cpp:150] Setting up mbox_conf
I0831 16:53:19.102931 59706 net.cpp:157] Top shape: 5 183372 (916860)
I0831 16:53:19.102936 59706 net.cpp:165] Memory required for data: 1253291616
I0831 16:53:19.102938 59706 layer_factory.hpp:77] Creating layer mbox_priorbox
I0831 16:53:19.102943 59706 net.cpp:100] Creating Layer mbox_priorbox
I0831 16:53:19.102947 59706 net.cpp:434] mbox_priorbox <- conv4_3_norm_mbox_priorbox
I0831 16:53:19.102952 59706 net.cpp:434] mbox_priorbox <- fc7_mbox_priorbox
I0831 16:53:19.102955 59706 net.cpp:434] mbox_priorbox <- conv6_2_mbox_priorbox
I0831 16:53:19.102959 59706 net.cpp:434] mbox_priorbox <- conv7_2_mbox_priorbox
I0831 16:53:19.102962 59706 net.cpp:434] mbox_priorbox <- conv8_2_mbox_priorbox
I0831 16:53:19.102967 59706 net.cpp:434] mbox_priorbox <- conv9_2_mbox_priorbox
I0831 16:53:19.102972 59706 net.cpp:408] mbox_priorbox -> mbox_priorbox
I0831 16:53:19.102986 59706 net.cpp:150] Setting up mbox_priorbox
I0831 16:53:19.102991 59706 net.cpp:157] Top shape: 1 2 34928 (69856)
I0831 16:53:19.102995 59706 net.cpp:165] Memory required for data: 1253571040
I0831 16:53:19.102998 59706 layer_factory.hpp:77] Creating layer mbox_loss
I0831 16:53:19.103015 59706 net.cpp:100] Creating Layer mbox_loss
I0831 16:53:19.103021 59706 net.cpp:434] mbox_loss <- mbox_loc
I0831 16:53:19.103025 59706 net.cpp:434] mbox_loss <- mbox_conf
I0831 16:53:19.103029 59706 net.cpp:434] mbox_loss <- mbox_priorbox
…
state {
  phase: TEST
}
layer {
  name: "data"
  type: "AnnotatedData"
  top: "data"
  top: "label"
  include {
    phase: TEST
  }
  transform_param {
    mean_value: 104
    mean_value: 117
    mean_value: 123
    resize_param {
      prob: 1
      resize_mode: WARP
      height: 300
      width: 300
      interp_mode: LINEAR
    }
  }
  data_param {
    source: "examples/VOC0712/VOC0712_test_lmdb"
    batch_size: 4
    backend: LMDB
  }
  annotated_data_param {
    batch_sampler {
    }
    label_map_file: "data/VOC0712/labelmap_voc.prototxt"
  }
}
layer {
  name: "conv1_1"
  type: "Convolution"
  bottom: "data"
  top: "conv1_1"
  param {
    lr_mult: 1
    decay_mult: 1
  }
  param {
    lr_mult: 2
    decay_mult: 0
  }
  convolution_param {
    num_output: 64
    pad: 1
    kernel_size: 3
    weight_filler {
      type: "xavier"
    }
    bias_filler {
      type: "constant"
      value: 0
    }
  }
}
layer {
  name: "relu1_1"
  type: "ReLU"
  bottom: "conv1_1"
  top: "conv1_1"
}
layer {
  name: "conv1_2"
  type: "Convolution"
  bottom: "conv1_1"
  top: "conv1_2"
  param {
    lr_mult: 1
    decay_mult: 1
  }
  param {
    lr_mult: 2
    decay_mult: 0
  }
  convolution_param {
    num_output: 64
    pad: 1
    kernel_size: 3
    weight_filler {
      type: "xavier"
    }
    bias_filler {
      type: "constant"
      value: 0
    }
  }
}
layer {
  name: "relu1_2"
  type: "ReLU"
  bottom: "conv1_2"
  top: "conv1_2"
}
layer {
  name: "pool1"
  type: "Pooling"
  bottom: "conv1_2"
  top: "pool1"
  pooling_param {
    pool: MAX
    kernel_size: 2
    stride: 2
  }
}
layer {
  name: "conv2_1"
  type: "Convolution"
  bottom: "pool1"
  top: "conv2_1"
  param {
    lr_mult: 1
    decay_mult: 1
  }
  param {
    lr_mult: 2
    decay_mult: 0
  }
  convolution_param {
    num_output: 128
    pad: 1
    kernel_size: 3
    weight_filler {
      type: "xavier"
    }
    bias_filler {
      type: "constant"
      value: 0
    }
  }
}
layer {
  name: "relu2_1"
  type: "ReLU"
  bottom: "conv2_1"
  top: "conv2_1"
}
layer {
  name: "conv2_2"
  type: "Convolution"
  bottom: "conv2_1"
  top: "conv2_2"
  param {
    lr_mult: 1
    decay_mult: 1
  }
  param {
    lr_mult: 2
    decay_mult: 0
  }
  convolution_param {
    num_output: 128
    pad: 1
    kernel_size: 3
    weight_filler {
      type: "xavier"
    }
    bias_filler {
      type: "constant"
      value: 0
    }
  }
}
layer {
  name: "relu2_2"
  type: "ReLU"
  bottom: "conv2_2"
  top: "conv2_2"
}
layer {
  name: "pool2"
  type: "Pooling"
  bottom: "conv2_2"
  top: "pool2"
  pooling_param {
    pool: MAX
    kernel_size: 2
    stride: 2
  }
}
layer {
  name: "conv3_1"
  type: "Convolution"
  bottom: "pool2"
  top: "conv3_1"
  param {
    lr_mult: 1
    decay_mult: 1
  }
  param {
    lr_mult: 2
    decay_mult: 0
  }
  convolution_param {
    num_output: 256
    pad: 1
    kernel_size: 3
    weight_filler {
      type: "xavier"
    }
    bias_filler {
      type: "constant"
      value: 0
    }
  }
}
layer {
  name: "relu3_1"
  type: "ReLU"
  bottom: "conv3_1"
  top: "conv3_1"
}
layer {
  name: "conv3_2"
  type: "Convolution"
  bottom: "conv3_1"
  top: "conv3_2"
  param {
    lr_mult: 1
    decay_mult: 1
  }
  param {
    lr_mult: 2
    decay_mult: 0
  }
  convolution_param {
    num_output: 256
    pad: 1
    kernel_size: 3
    weight_filler {
      type: "xavier"
    }
    bias_filler {
      type: "constant"
      value: 0
    }
  }
}
layer {
  name: "relu3_2"
  type: "ReLU"
  bottom: "conv3_2"
  top: "conv3_2"
}
layer {
  name: "conv3_3"
  type: "Convolution"
  bottom: "conv3_2"
  top: "conv3_3"
  param {
    lr_mult: 1
    decay_mult: 1
  }
  param {
    lr_mult: 2
    decay_mult: 0
  }
  convolution_param {
    num_output: 256
    pad: 1
    kernel_size: 3
    weight_filler {
      type: "xavier"
    }
    bias_filler {
      type: "constant"
      value: 0
    }
  }
}
layer {
  name: "relu3_3"
  type: "ReLU"
  bottom: "conv3_3"
  top: "conv3_3"
}
layer {
  name: "pool3"
  type: "Pooling"
  bottom: "conv3_3"
  top: "pool3"
  pooling_param {
    pool: MAX
    kernel_size: 2
    stride: 2
  }
}
layer {
  name: "conv4_1"
  type: "Convolution"
  bottom: "pool3"
  top: "conv4_1"
  param {
    lr_mult: 1
    decay_mult: 1
  }
  param {
    lr_mult: 2
    decay_mult: 0
  }
  convolution_param {
    num_output: 512
    pad: 1
    kernel_size: 3
    weight_filler {
      type: "xavier"
    }
    bias_filler {
      type: "constant"
      value: 0
    }
  }
}
layer {
  name: "relu4_1"
  type: "ReLU"
  bottom: "conv4_1"
  top: "conv4_1"
}
layer {
  name: "conv4_2"
  type: "Convolution"
  bottom: "conv4_1"
  top: "conv4_2"
  param {
    lr_mult: 1
    decay_mult: 1
  }
  param {
    lr_mult: 2
    decay_mult: 0
  }
  convolution_param {
    num_output: 512
    pad: 1
    kernel_size: 3
    weight_filler {
      type: "xavier"
    }
    bias_filler {
      type: "constant"
      value: 0
    }
  }
}
layer {
  name: "relu4_2"
  type: "ReLU"
  bottom: "conv4_2"
  top: "conv4_2"
}
layer {
  name: "conv4_3"
  type: "Convolution"
  bottom: "conv4_2"
  top: "conv4_3"
  param {
    lr_mult: 1
    decay_mult: 1
  }
  param {
    lr_mult: 2
    decay_mult: 0
  }
  convolution_param {
    num_output: 512
    pad: 1
    kernel_size: 3
    weight_filler {
      type: "xavier"
    }
    bias_filler {
      type: "constant"
      value: 0
    }
  }
}
layer {
  name: "relu4_3"
  type: "ReLU"
  bottom: "conv4_3"
  top: "conv4_3"
}
layer {
  name: "pool4"
  type: "Pooling"
  bottom: "conv4_3"
  top: "pool4"
  pooling_param {
    pool: MAX
    kernel_size: 2
    stride: 2
  }
}
layer {
  name: "conv5_1"
  type: "Convolution"
  bottom: "pool4"
  top: "conv5_1"
  param {
    lr_mult: 1
    decay_mult: 1
  }
  param {
    lr_mult: 2
    decay_mult: 0
  }
  convolution_param {
    num_output: 512
    pad: 1
    kernel_size: 3
    weight_filler {
      type: "xavier"
    }
    bias_filler {
      type: "constant"
      value: 0
    }
    dilation: 1
  }
}
layer {
  name: "relu5_1"
  type: "ReLU"
  bottom: "conv5_1"
  top: "conv5_1"
}
layer {
  name: "conv5_2"
  type: "Convolution"
  bottom: "conv5_1"
  top: "conv5_2"
  param {
    lr_mult: 1
    decay_mult: 1
  }
  param {
    lr_mult: 2
    decay_mult: 0
  }
  convolution_param {
    num_output: 512
    pad: 1
    kernel_size: 3
    weight_filler {
      type: "xavier"
    }
    bias_filler {
      type: "constant"
      value: 0
    }
    dilation: 1
  }
}
layer {
  name: "relu5_2"
  type: "ReLU"
  bottom: "conv5_2"
  top: "conv5_2"
}
layer {
  name: "conv5_3"
  type: "Convolution"
  bottom: "conv5_2"
  top: "conv5_3"
  param {
    lr_mult: 1
    decay_mult: 1
  }
  param {
    lr_mult: 2
    decay_mult: 0
  }
  convolution_param {
    num_output: 512
    pad: 1
    kernel_size: 3
    weight_filler {
      type: "xavier"
    }
    bias_filler {
      type: "constant"
      value: 0
    }
    dilation: 1
  }
}
layer {
  name: "relu5_3"
  type: "ReLU"
  bottom: "conv5_3"
  top: "conv5_3"
}
layer {
  name: "pool5"
  type: "Pooling"
  bottom: "conv5_3"
  top: "pool5"
  pooling_param {
    pool: MAX
    kernel_size: 3
    stride: 1
    pad: 1
  }
}
layer {
  name: "fc6"
  type: "Convolution"
  bottom: "pool5"
  top: "fc6"
  param {
    lr_mult: 1
    decay_mult: 1
  }
  param {
    lr_mult: 2
    decay_mult: 0
  }
  convolution_param {
    num_output: 1024
    pad: 6
    kernel_size: 3
    weight_filler {
      type: "xavier"
    }
    bias_filler {
      type: "constant"
      value: 0
    }
    dilation: 6
  }
}
layer {
  name: "relu6"
  type: "ReLU"
  bottom: "fc6"
  top: "fc6"
}
layer {
  name: "fc7"
  type: "Convolution"
  bottom: "fc6"
  top: "fc7"
  param {
    lr_mult: 1
    decay_mult: 1
  }
  param {
    lr_mult: 2
    decay_mult: 0
  }
  convolution_param {
    num_output: 1024
    kernel_size: 1
    weight_filler {
      type: "xavier"
    }
    bias_filler {
      type: "constant"
      value: 0
    }
  }
}
layer {
  name: "relu7"
  type: "ReLU"
  bottom: "fc7"
  top: "fc7"
}
layer {
  name: "conv6_1"
  type: "Convolution"
  bottom: "fc7"
  top: "conv6_1"
  param {
    lr_mult: 1
    decay_mult: 1
  }
  param {
    lr_mult: 2
    decay_mult: 0
  }
  convolution_param {
    num_output: 256
    pad: 0
    kernel_size: 1
    stride: 1
    weight_filler {
      type: "xavier"
    }
    bias_filler {
      type: "constant"
      value: 0
    }
  }
}
layer {
  name: "conv6_1_relu"
  type: "ReLU"
  bottom: "conv6_1"
  top: "conv6_1"
}
layer {
  name: "conv6_2"
  type: "Convolution"
  bottom: "conv6_1"
  top: "conv6_2"
  param {
    lr_mult: 1
    decay_mult: 1
  }
  param {
    lr_mult: 2
    decay_mult: 0
  }
  convolution_param {
    num_output: 512
    pad: 1
    kernel_size: 3
    stride: 2
    weight_filler {
      type: "xavier"
    }
    bias_filler {
      type: "constant"
      value: 0
    }
  }
}
layer {
  name: "conv6_2_relu"
  type: "ReLU"
  bottom: "conv6_2"
  top: "conv6_2"
}
layer {
  name: "conv7_1"
  type: "Convolution"
  bottom: "conv6_2"
  top: "conv7_1"
  param {
    lr_mult: 1
    decay_mult: 1
  }
  param {
    lr_mult: 2
    decay_mult: 0
  }
  convolution_param {
    num_output: 128
    pad: 0
    kernel_size: 1
    stride: 1
    weight_filler {
      type: "xavier"
    }
    bias_filler {
      type: "constant"
      value: 0
    }
  }
}
layer {
  name: "conv7_1_relu"
  type: "ReLU"
  bottom: "conv7_1"
  top: "conv7_1"
}
layer {
  name: "conv7_2"
  type: "Convolution"
  bottom: "conv7_1"
  top: "conv7_2"
  param {
    lr_mult: 1
    decay_mult: 1
  }
  param {
    lr_mult: 2
    decay_mult: 0
  }
  convolution_param {
    num_output: 256
    pad: 1
    kernel_size: 3
    stride: 2
    weight_filler {
      type: "xavier"
    }
    bias_filler {
      type: "constant"
      value: 0
    }
  }
}
layer {
  name: "conv7_2_relu"
  type: "ReLU"
  bottom: "conv7_2"
  top: "conv7_2"
}
layer {
  name: "conv8_1"
  type: "Convolution"
  bottom: "conv7_2"
  top: "conv8_1"
  param {
    lr_mult: 1
    decay_mult: 1
  }
  param {
    lr_mult: 2
    decay_mult: 0
  }
  convolution_param {
    num_output: 128
    pad: 0
    kernel_size: 1
    stride: 1
    weight_filler {
      type: "xavier"
    }
    bias_filler {
      type: "constant"
      value: 0
    }
  }
}
layer {
  name: "conv8_1_relu"
  type: "ReLU"
  bottom: "conv8_1"
  top: "conv8_1"
}
layer {
  name: "conv8_2"
  type: "Convolution"
  bottom: "conv8_1"
  top: "conv8_2"
  param {
    lr_mult: 1
    decay_mult: 1
  }
  param {
    lr_mult: 2
    decay_mult: 0
  }
  convolution_param {
    num_output: 256
    pad: 0
    kernel_size: 3
    stride: 1
    weight_filler {
      type: "xavier"
    }
    bias_filler {
      type: "constant"
      value: 0
    }
  }
}
layer {
  name: "conv8_2_relu"
  type: "ReLU"
  bottom: "conv8_2"
  top: "conv8_2"
}
layer {
  name: "conv9_1"
  type: "Convolution"
  bottom: "conv8_2"
  top: "conv9_1"
  param {
    lr_mult: 1
    decay_mult: 1
  }
  param {
    lr_mult: 2
    decay_mult: 0
  }
  convolution_param {
    num_output: 128
    pad: 0
    kernel_size: 1
    stride: 1
    weight_filler {
      type: "xavier"
    }
    bias_filler {
      type: "constant"
      value: 0
    }
  }
}
layer {
  name: "conv9_1_relu"
  type: "ReLU"
  bottom: "conv9_1"
  top: "conv9_1"
}
layer {
  name: "conv9_2"
  type: "Convolution"
  bottom: "conv9_1"
  top: "conv9_2"
  param {
    lr_mult: 1
    decay_mult: 1
  }
  param {
    lr_mult: 2
    decay_mult: 0
  }
  convolution_param {
    num_output: 256
    pad: 0
    kernel_size: 3
    stride: 1
    weight_filler {
      type: "xavier"
    }
    bias_filler {
      type: "constant"
      value: 0
    }
  }
}
layer {
  name: "conv9_2_relu"
  type: "ReLU"
  bottom: "conv9_2"
  top: "conv9_2"
}
layer {
  name: "conv4_3_norm"
  type: "Normalize"
  bottom: "conv4_3"
  top: "conv4_3_norm"
  norm_param {
    across_spatial: false
    scale_filler {
      type: "constant"
      value: 20
    }
    channel_shared: false
  }
}
layer {
  name: "conv4_3_norm_mbox_loc"
  type: "Convolution"
  bottom: "conv4_3_norm"
  top: "conv4_3_norm_mbox_loc"
  param {
    lr_mult: 1
    decay_mult: 1
  }
  param {
    lr_mult: 2
    decay_mult: 0
  }
  convolution_param {
    num_output: 16
    pad: 1
    kernel_size: 3
    stride: 1
    weight_filler {
      type: "xavier"
    }
    bias_filler {
      type: "constant"
      value: 0
    }
  }
}
layer {
  name: "conv4_3_norm_mbox_loc_perm"
  type: "Permute"
  bottom: "conv4_3_norm_mbox_loc"
  top: "conv4_3_norm_mbox_loc_perm"
  permute_param {
    order: 0
    order: 2
    order: 3
    order: 1
  }
}
layer {
  name: "conv4_3_norm_mbox_loc_flat"
  type: "Flatten"
  bottom: "conv4_3_norm_mbox_loc_perm"
  top: "conv4_3_norm_mbox_loc_flat"
  flatten_param {
    axis: 1
  }
}
layer {
  name: "conv4_3_norm_mbox_conf"
  type: "Convolution"
  bottom: "conv4_3_norm"
  top: "conv4_3_norm_mbox_conf"
  param {
    lr_mult: 1
    decay_mult: 1
  }
  param {
    lr_mult: 2
    decay_mult: 0
  }
  convolution_param {
    num_output: 84
    pad: 1
    kernel_size: 3
    stride: 1
    weight_filler {
      type: "xavier"
    }
    bias_filler {
      type: "constant"
      value: 0
    }
  }
}
layer {
  name: "conv4_3_norm_mbox_conf_perm"
  type: "Permute"
  bottom: "conv4_3_norm_mbox_conf"
  top: "conv4_3_norm_mbox_conf_perm"
  permute_param {
    order: 0
    order: 2
    order: 3
    order: 1
  }
}
layer {
  name: "conv4_3_norm_mbox_conf_flat"
  type: "Flatten"
  bottom: "conv4_3_norm_mbox_conf_perm"
  top: "conv4_3_norm_mbox_conf_flat"
  flatten_param {
    axis: 1
  }
}
layer {
  name: "conv4_3_norm_mbox_priorbox"
  type: "PriorBox"
  bottom: "conv4_3_norm"
  bottom: "data"
  top: "conv4_3_norm_mbox_priorbox"
  prior_box_param {
    min_size: 30
    max_size: 60
    aspect_ratio: 2
    flip: true
    clip: false
    variance: 0.1
    variance: 0.1
    variance: 0.2
    variance: 0.2
    step: 8
    offset: 0.5
  }
}
layer {
  name: "fc7_mbox_loc"
  type: "Convolution"
  bottom: "fc7"
  top: "fc7_mbox_loc"
  param {
    lr_mult: 1
    decay_mult: 1
  }
  param {
    lr_mult: 2
    decay_mult: 0
  }
  convolution_param {
    num_output: 24
    pad: 1
    kernel_size: 3
    stride: 1
    weight_filler {
      type: "xavier"
    }
    bias_filler {
      type: "constant"
      value: 0
    }
  }
}
layer {
  name: "fc7_mbox_loc_perm"
  type: "Permute"
  bottom: "fc7_mbox_loc"
  top: "fc7_mbox_loc_perm"
  permute_param {
    order: 0
    order: 2
    order: 3
    order: 1
  }
}
layer {
  name: "fc7_mbox_loc_flat"
  type: "Flatten"
  bottom: "fc7_mbox_loc_perm"
  top: "fc7_mbox_loc_flat"
  flatten_param {
    axis: 1
  }
}
layer {
  name: "fc7_mbox_conf"
  type: "Convolution"
  bottom: "fc7"
  top: "fc7_mbox_conf"
  param {
    lr_mult: 1
    decay_mult: 1
  }
  param {
    lr_mult: 2
    decay_mult: 0
  }
  convolution_param {
    num_output: 126
    pad: 1
    kernel_size: 3
    stride: 1
    weight_filler {
      type: "xavier"
    }
    bias_filler {
      type: "constant"
      value: 0
    }
  }
}
layer {
  name: "fc7_mbox_conf_perm"
  type: "Permute"
  bottom: "fc7_mbox_conf"
  top: "fc7_mbox_conf_perm"
  permute_param {
    order: 0
    order: 2
    order: 3
    order: 1
  }
}
layer {
  name: "fc7_mbox_conf_flat"
  type: "Flatten"
  bottom: "fc7_mbox_conf_perm"
  top: "fc7_mbox_conf_flat"
  flatten_param {
    axis: 1
  }
}
layer {
  name: "fc7_mbox_priorbox"
  type: "PriorBox"
  bottom: "fc7"
  bottom: "data"
  top: "fc7_mbox_priorbox"
  prior_box_param {
    min_size: 60
    max_size: 111
    aspect_ratio: 2
    aspect_ratio: 3
    flip: true
    clip: false
    variance: 0.1
    variance: 0.1
    variance: 0.2
    variance: 0.2
    step: 16
    offset: 0.5
  }
}
layer {
  name: "conv6_2_mbox_loc"
  type: "Convolution"
  bottom: "conv6_2"
  top: "conv6_2_mbox_loc"
  param {
    lr_mult: 1
    decay_mult: 1
  }
  param {
    lr_mult: 2
    decay_mult: 0
  }
  convolution_param {
    num_output: 24
    pad: 1
    kernel_size: 3
    stride: 1
    weight_filler {
      type: "xavier"
    }
    bias_filler {
      type: "constant"
      value: 0
    }
  }
}
layer {
  name: "conv6_2_mbox_loc_perm"
  type: "Permute"
  bottom: "conv6_2_mbox_loc"
  top: "conv6_2_mbox_loc_perm"
  permute_param {
    order: 0
    order: 2
    order: 3
    order: 1
  }
}
layer {
  name: "conv6_2_mbox_loc_flat"
  type: "Flatten"
  bottom: "conv6_2_mbox_loc_perm"
  top: "conv6_2_mbox_loc_flat"
  flatten_param {
    axis: 1
  }
}
layer {
  name: "conv6_2_mbox_conf"
  type: "Convolution"
  bottom: "conv6_2"
  top: "conv6_2_mbox_conf"
  param {
    lr_mult: 1
    decay_mult: 1
  }
  param {
    lr_mult: 2
    decay_mult: 0
  }
  convolution_param {
    num_output: 126
    pad: 1
    kernel_size: 3
    stride: 1
    weight_filler {
      type: "xavier"
    }
    bias_filler {
      type: "constant"
      value: 0
    }
  }
}
layer {
  name: "conv6_2_mbox_conf_perm"
  type: "Permute"
  bottom: "conv6_2_mbox_conf"
  top: "conv6_2_mbox_conf_perm"
  permute_param {
    order: 0
    order: 2
    order: 3
    order: 1
  }
}
layer {
  name: "conv6_2_mbox_conf_flat"
  type: "Flatten"
  bottom: "conv6_2_mbox_conf_perm"
  top: "conv6_2_mbox_conf_flat"
  flatten_param {
    axis: 1
  }
}
layer {
  name: "conv6_2_mbox_priorbox"
  type: "PriorBox"
  bottom: "conv6_2"
  bottom: "data"
  top: "conv6_2_mbox_priorbox"
  prior_box_param {
    min_size: 111
    max_size: 162
    aspect_ratio: 2
    aspect_ratio: 3
    flip: true
    clip: false
    variance: 0.1
    variance: 0.1
    variance: 0.2
    variance: 0.2
    step: 32
    offset: 0.5
  }
}
layer {
  name: "conv7_2_mbox_loc"
  type: "Convolution"
  bottom: "conv7_2"
  top: "conv7_2_mbox_loc"
  param {
    lr_mult: 1
    decay_mult: 1
  }
  param {
    lr_mult: 2
    decay_mult: 0
  }
  convolution_param {
    num_output: 24
    pad: 1
    kernel_size: 3
    stride: 1
    weight_filler {
      type: "xavier"
    }
    bias_filler {
      type: "constant"
      value: 0
    }
  }
}
layer {
  name: "conv7_2_mbox_loc_perm"
  type: "Permute"
  bottom: "conv7_2_mbox_loc"
  top: "conv7_2_mbox_loc_perm"
  permute_param {
    order: 0
    order: 2
    order: 3
    order: 1
  }
}
layer {
  name: "conv7_2_mbox_loc_flat"
  type: "Flatten"
  bottom: "conv7_2_mbox_loc_perm"
  top: "conv7_2_mbox_loc_flat"
  flatten_param {
    axis: 1
  }
}
layer {
  name: "conv7_2_mbox_conf"
  type: "Convolution"
  bottom: "conv7_2"
  top: "conv7_2_mbox_conf"
  param {
    lr_mult: 1
    decay_mult: 1
  }
  param {
    lr_mult: 2
    decay_mult: 0
  }
  convolution_param {
    num_output: 126
    pad: 1
    kernel_size: 3
    stride: 1
    weight_filler {
      type: "xavier"
    }
    bias_filler {
      type: "constant"
      value: 0
    }
  }
}
layer {
  name: "conv7_2_mbox_conf_perm"
  type: "Permute"
  bottom: "conv7_2_mbox_conf"
  top: "conv7_2_mbox_conf_perm"
  permute_param {
    order: 0
    order: 2
    order: 3
    order: 1
  }
}
layer {
  name: "conv7_2_mbox_conf_flat"
  type: "Flatten"
  bottom: "conv7_2_mbox_conf_perm"
  top: "conv7_2_mbox_conf_flat"
  flatten_param {
    axis: 1
  }
}
layer {
  name: "conv7_2_mbox_priorbox"
  type: "PriorBox"
  bottom: "conv7_2"
  bottom: "data"
  top: "conv7_2_mbox_priorbox"
  prior_box_param {
    min_size: 162
    max_size: 213
    aspect_ratio: 2
    aspect_ratio: 3
    flip: true
    clip: false
    variance: 0.1
    variance: 0.1
    variance: 0.2
    variance: 0.2
    step: 64
    offset: 0.5
  }
}
layer {
  name: "conv8_2_mbox_loc"
  type: "Convolution"
  bottom: "conv8_2"
  top: "conv8_2_mbox_loc"
  param {
    lr_mult: 1
    decay_mult: 1
  }
  param {
    lr_mult: 2
    decay_mult: 0
  }
  convolution_param {
    num_output: 16
    pad: 1
    kernel_size: 3
    stride: 1
    weight_filler {
      type: "xavier"
    }
    bias_filler {
      type: "constant"
      value: 0
    }
  }
}
layer {
  name: "conv8_2_mbox_loc_perm"
  type: "Permute"
  bottom: "conv8_2_mbox_loc"
  top: "conv8_2_mbox_loc_perm"
  permute_param {
    order: 0
    order: 2
    order: 3
    order: 1
  }
}
layer {
  name: "conv8_2_mbox_loc_flat"
  type: "Flatten"
  bottom: "conv8_2_mbox_loc_perm"
  top: "conv8_2_mbox_loc_flat"
  flatten_param {
    axis: 1
  }
}
layer {
  name: "conv8_2_mbox_conf"
  type: "Convolution"
  bottom: "conv8_2"
  top: "conv8_2_mbox_conf"
  param {
    lr_mult: 1
    decay_mult: 1
  }
  param {
    lr_mult: 2
    decay_mult: 0
  }
  convolution_param {
    num_output: 84
    pad: 1
    kernel_size: 3
    stride: 1
    weight_filler {
      type: "xavier"
    }
    bias_filler {
      type: "constant"
      value: 0
    }
  }
}
layer {
  name: "conv8_2_mbox_conf_perm"
  type: "Permute"
  bottom: "conv8_2_mbox_conf"
  top: "conv8_2_mbox_conf_perm"
  permute_param {
    order: 0
    order: 2
    order: 3
    order: 1
  }
}
layer {
  name: "conv8_2_mbox_conf_flat"
  type: "Flatten"
  bottom: "conv8_2_mbox_conf_perm"
  top: "conv8_2_mbox_conf_flat"
  flatten_param {
    axis: 1
  }
}
layer {
  name: "conv8_2_mbox_priorbox"
  type: "PriorBox"
  bottom: "conv8_2"
  bottom: "data"
  top: "conv8_2_mbox_priorbox"
  prior_box_param {
    min_size: 213
    max_size: 264
    aspect_ratio: 2
    flip: true
    clip: false
    variance: 0.1
    variance: 0.1
    variance: 0.2
    variance: 0.2
    step: 100
    offset: 0.5
  }
}
layer {
  name: "conv9_2_mbox_loc"
  type: "Convolution"
  bottom: "conv9_2"
  top: "conv9_2_mbox_loc"
  param {
    lr_mult: 1
    decay_mult: 1
  }
  param {
    lr_mult: 2
    decay_mult: 0
  }
  convolution_param {
    num_output: 16
    pad: 1
    kernel_size: 3
    stride: 1
    weight_filler {
      type: "xavier"
    }
    bias_filler {
      type: "constant"
      value: 0
    }
  }
}
layer {
  name: "conv9_2_mbox_loc_perm"
  type: "Permute"
  bottom: "conv9_2_mbox_loc"
  top: "conv9_2_mbox_loc_perm"
  permute_param {
    order: 0
    order: 2
    order: 3
    order: 1
  }
}
layer {
  name: "conv9_2_mbox_loc_flat"
  type: "Flatten"
  bottom: "conv9_2_mbox_loc_perm"
  top: "conv9_2_mbox_loc_flat"
  flatten_param {
    axis: 1
  }
}
layer {
  name: "conv9_2_mbox_conf"
  type: "Convolution"
  bottom: "conv9_2"
  top: "conv9_2_mbox_conf"
  param {
    lr_mult: 1
    decay_mult: 1
  }
  param {
    lr_mult: 2
    decay_mult: 0
  }
  convolution_param {
    num_output: 84
    pad: 1
    kernel_size: 3
    stride: 1
    weight_filler {
      type: "xavier"
    }
    bias_filler {
      type: "constant"
      value: 0
    }
  }
}
layer {
  name: "conv9_2_mbox_conf_perm"
  type: "Permute"
  bottom: "conv9_2_mbox_conf"
  top: "conv9_2_mbox_conf_perm"
  permute_param {
    order: 0
    order: 2
    order: 3
    order: 1
  }
}
layer {
  name: "conv9_2_mbox_conf_flat"
  type: "Flatten"
  bottom: "conv9_2_mbox_conf_perm"
  top: "conv9_2_mbox_conf_flat"
  flatten_param {
    axis: 1
  }
}
layer {
  name: "conv9_2_mbox_priorbox"
  type: "PriorBox"
  bottom: "conv9_2"
  bottom: "data"
  top: "conv9_2_mbox_priorbox"
  prior_box_param {
    min_size: 264
    max_size: 315
    aspect_ratio: 2
    flip: true
    clip: false
    variance: 0.1
    variance: 0.1
    variance: 0.2
    variance: 0.2
    step: 300
    offset: 0.5
  }
}
layer {
  name: "mbox_loc"
  type: "Concat"
  bottom: "conv4_3_norm_mbox_loc_flat"
  bottom: "fc7_mbox_loc_flat"
  bottom: "conv6_2_mbox_loc_flat"
  bottom: "conv7_2_mbox_loc_flat"
  bottom: "conv8_2_mbox_loc_flat"
  bottom: "conv9_2_mbox_loc_flat"
  top: "mbox_loc"
  concat_param {
    axis: 1
  }
}
layer {
  name: "mbox_conf"
  type: "Concat"
  bottom: "conv4_3_norm_mbox_conf_flat"
  bottom: "fc7_mbox_conf_flat"
  bottom: "conv6_2_mbox_conf_flat"
  bottom: "conv7_2_mbox_conf_flat"
  bottom: "conv8_2_mbox_conf_flat"
  bottom: "conv9_2_mbox_conf_flat"
  top: "mbox_conf"
  concat_param {
    axis: 1
  }
}
layer {
  name: "mbox_priorbox"
  type: "Concat"
  bottom: "conv4_3_norm_mbox_priorbox"
  bottom: "fc7_mbox_priorbox"
  bottom: "conv6_2_mbox_priorbox"
  bottom: "conv7_2_mbox_priorbox"
  bottom: "conv8_2_mbox_priorbox"
  bottom: "conv9_2_mbox_priorbox"
  top: "mbox_priorbox"
  concat_param {
    axis: 2
  }
}
layer {
  name: "mbox_conf_reshape"
  type: "Reshape"
  bottom: "mbox_conf"
  top: "mbox_conf_reshape"
  reshape_param {
    shape {
      dim: 0
      dim: -1
      dim: 21
    }
  }
}
layer {
  name: "mbox_conf_softmax"
  type: "Softmax"
  bottom: "mbox_conf_reshape"
  top: "mbox_conf_softmax"
  softmax_param {
    axis: 2
  }
}
layer {
  name: "mbox_conf_flatten"
  type: "Flatten"
  bottom: "mbox_conf_softmax"
  top: "mbox_conf_flatten"
  flatten_param {
    axis: 1
  }
}
layer {
  name: "detection_out"
  type: "DetectionOutput"
  bottom: "mbox_loc"
  bottom: "mbox_conf_flatten"
  bottom: "mbox_priorbox"
  top: "detection_out"
  include {
    phase: TEST
  }
  detection_output_param {
    num_classes: 21
    share_location: true
    background_label_id: 0
    nms_param {
      nms_threshold: 0.45
      top_k: 400
    }
    save_output_param {
      output_directory: "/home/prabodh/data/VOCdevkit/results/VOC2007/SSD_300x300/Main"
      output_name_prefix: "comp4_det_test_"
      output_format: "VOC"
      label_map_file: "data/VOC0712/labelmap_voc.prototxt"
      name_size_file: "data/VOC0712/test_name_size.txt"
      num_test_image: 4952
    }
    code_type: CENTER_SIZE
    keep_top_k: 200
    confidence_threshold: 0.01
  }
}
layer {
  name: "detection_eval"
  type: "DetectionEvaluate"
  bottom: "detection_out"
  bottom: "label"
  top: "detection_eval"
  include {
    phase: TEST
  }
  detection_evaluate_param {
    num_classes: 21
    background_label_id: 0
    overlap_threshold: 0.5
    evaluate_difficult_gt: false
    name_size_file: "data/VOC0712/test_name_size.txt"
  }
}
I0831 16:53:19.106300 59706 layer_factory.hpp:77] Creating layer data
I0831 16:53:19.106405 59706 net.cpp:100] Creating Layer data
I0831 16:53:19.106415 59706 net.cpp:408] data -> data
I0831 16:53:19.106427 59706 net.cpp:408] data -> label
I0831 16:53:19.106827 59723 db_lmdb.cpp:35] Opened lmdb examples/VOC0712/VOC0712_test_lmdb
I0831 16:53:19.108502 59706 annotated_data_layer.cpp:62] output data size: 4,3,300,300
I0831 16:53:19.113765 59706 net.cpp:150] Setting up data
I0831 16:53:19.113785 59706 net.cpp:157] Top shape: 4 3 300 300 (1080000)
I0831 16:53:19.113790 59706 net.cpp:157] Top shape: 1 1 2 8 (16)
I0831 16:53:19.113791 59706 net.cpp:165] Memory required for data: 4320064
I0831 16:53:19.113795 59706 layer_factory.hpp:77] Creating layer data_data_0_split
I0831 16:53:19.113803 59706 net.cpp:100] Creating Layer data_data_0_split
I0831 16:53:19.113806 59706 net.cpp:434] data_data_0_split <- data
I0831 16:53:19.113811 59706 net.cpp:408] data_data_0_split -> data_data_0_split_0
I0831 16:53:19.113819 59706 net.cpp:408] data_data_0_split -> data_data_0_split_1
I0831 16:53:19.113823 59706 net.cpp:408] data_data_0_split -> data_data_0_split_2
I0831 16:53:19.113826 59706 net.cpp:408] data_data_0_split -> data_data_0_split_3
I0831 16:53:19.113829 59706 net.cpp:408] data_data_0_split -> data_data_0_split_4
I0831 16:53:19.113832 59706 net.cpp:408] data_data_0_split -> data_data_0_split_5
I0831 16:53:19.113835 59706 net.cpp:408] data_data_0_split -> data_data_0_split_6
I0831 16:53:19.113965 59706 net.cpp:150] Setting up data_data_0_split
I0831 16:53:19.113967 59706 net.cpp:157] Top shape: 4 3 300 300 (1080000)
I0831 16:53:19.113970 59706 net.cpp:157] Top shape: 4 3 300 300 (1080000)
I0831 16:53:19.113972 59706 net.cpp:157] Top shape: 4 3 300 300 (1080000)
I0831 16:53:19.113974 59706 net.cpp:157] Top shape: 4 3 300 300 (1080000)
I0831 16:53:19.113976 59706 net.cpp:157] Top shape: 4 3 300 300 (1080000)
I0831 16:53:19.113978 59706 net.cpp:157] Top shape: 4 3 300 300 (1080000)
I0831 16:53:19.113981 59706 net.cpp:157] Top shape: 4 3 300 300 (1080000)
I0831 16:53:19.113982 59706 net.cpp:165] Memory required for data: 34560064
I0831 16:53:19.113984 59706 layer_factory.hpp:77] Creating layer conv1_1
I0831 16:53:19.113993 59706 net.cpp:100] Creating Layer conv1_1
I0831 16:53:19.114037 59706 net.cpp:434] conv1_1 <- data_data_0_split_0
I0831 16:53:19.114048 59706 net.cpp:408] conv1_1 -> conv1_1
I0831 16:53:19.114246 59706 net.cpp:150] Setting up conv1_1
I0831 16:53:19.114250 59706 net.cpp:157] Top shape: 4 64 300 300 (23040000)
I0831 16:53:19.114253 59706 net.cpp:165] Memory required for data: 126720064
I0831 16:53:19.114259 59706 layer_factory.hpp:77] Creating layer relu1_1
I0831 16:53:19.114269 59706 net.cpp:100] Creating Layer relu1_1
I0831 16:53:19.114270 59706 net.cpp:434] relu1_1 <- conv1_1
I0831 16:53:19.114272 59706 net.cpp:395] relu1_1 -> conv1_1 (in-place)
I0831 16:53:19.114276 59706 net.cpp:150] Setting up relu1_1
I0831 16:53:19.114277 59706 net.cpp:157] Top shape: 4 64 300 300 (23040000)
I0831 16:53:19.114280 59706 net.cpp:165] Memory required for data: 218880064
I0831 16:53:19.114281 59706 layer_factory.hpp:77] Creating layer conv1_2
I0831 16:53:19.114286 59706 net.cpp:100] Creating Layer conv1_2
I0831 16:53:19.114287 59706 net.cpp:434] conv1_2 <- conv1_1
I0831 16:53:19.114291 59706 net.cpp:408] conv1_2 -> conv1_2
I0831 16:53:19.114601 59706 net.cpp:150] Setting up conv1_2
I0831 16:53:19.114605 59706 net.cpp:157] Top shape: 4 64 300 300 (23040000)
I0831 16:53:19.114607 59706 net.cpp:165] Memory required for data: 311040064
I0831 16:53:19.114611 59706 layer_factory.hpp:77] Creating layer relu1_2
I0831 16:53:19.114614 59706 net.cpp:100] Creating Layer relu1_2
I0831 16:53:19.114616 59706 net.cpp:434] relu1_2 <- conv1_2
I0831 16:53:19.114619 59706 net.cpp:395] relu1_2 -> conv1_2 (in-place)
I0831 16:53:19.114621 59706 net.cpp:150] Setting up relu1_2
I0831 16:53:19.114622 59706 net.cpp:157] Top shape: 4 64 300 300 (23040000)
I0831 16:53:19.114624 59706 net.cpp:165] Memory required for data: 403200064
I0831 16:53:19.114626 59706 layer_factory.hpp:77] Creating layer pool1
I0831 16:53:19.114630 59706 net.cpp:100] Creating Layer pool1
I0831 16:53:19.114631 59706 net.cpp:434] pool1 <- conv1_2
I0831 16:53:19.114634 59706 net.cpp:408] pool1 -> pool1
I0831 16:53:19.114650 59706 net.cpp:150] Setting up pool1
I0831 16:53:19.114652 59706 net.cpp:157] Top shape: 4 64 150 150 (5760000)
I0831 16:53:19.114655 59706 net.cpp:165] Memory required for data: 426240064
I0831 16:53:19.114656 59706 layer_factory.hpp:77] Creating layer conv2_1
I0831 16:53:19.114660 59706 net.cpp:100] Creating Layer conv2_1
I0831 16:53:19.114661 59706 net.cpp:434] conv2_1 <- pool1
I0831 16:53:19.114665 59706 net.cpp:408] conv2_1 -> conv2_1
I0831 16:53:19.115084 59706 net.cpp:150] Setting up conv2_1
I0831 16:53:19.115089 59706 net.cpp:157] Top shape: 4 128 150 150 (11520000)
I0831 16:53:19.115092 59706 net.cpp:165] Memory required for data: 472320064
I0831 16:53:19.115095 59706 layer_factory.hpp:77] Creating layer relu2_1
I0831 16:53:19.115099 59706 net.cpp:100] Creating Layer relu2_1
I0831 16:53:19.115101 59706 net.cpp:434] relu2_1 <- conv2_1
I0831 16:53:19.115105 59706 net.cpp:395] relu2_1 -> conv2_1 (in-place)
I0831 16:53:19.115109 59706 net.cpp:150] Setting up relu2_1
I0831 16:53:19.115113 59706 net.cpp:157] Top shape: 4 128 150 150 (11520000)
I0831 16:53:19.115116 59706 net.cpp:165] Memory required for data: 518400064
I0831 16:53:19.115118 59706 layer_factory.hpp:77] Creating layer conv2_2
I0831 16:53:19.115124 59706 net.cpp:100] Creating Layer conv2_2
I0831 16:53:19.115128 59706 net.cpp:434] conv2_2 <- conv2_1
I0831 16:53:19.115131 59706 net.cpp:408] conv2_2 -> conv2_2
I0831 16:53:19.117130 59706 net.cpp:150] Setting up conv2_2
I0831 16:53:19.117144 59706 net.cpp:157] Top shape: 4 128 150 150 (11520000)
I0831 16:53:19.117151 59706 net.cpp:165] Memory required for data: 564480064
I0831 16:53:19.117157 59706 layer_factory.hpp:77] Creating layer relu2_2
I0831 16:53:19.117163 59706 net.cpp:100] Creating Layer relu2_2
I0831 16:53:19.117167 59706 net.cpp:434] relu2_2 <- conv2_2
I0831 16:53:19.117173 59706 net.cpp:395] relu2_2 -> conv2_2 (in-place)
I0831 16:53:19.117180 59706 net.cpp:150] Setting up relu2_2
I0831 16:53:19.117182 59706 net.cpp:157] Top shape: 4 128 150 150 (11520000)
I0831 16:53:19.117214 59706 net.cpp:165] Memory required for data: 610560064
I0831 16:53:19.117218 59706 layer_factory.hpp:77] Creating layer pool2
I0831 16:53:19.117223 59706 net.cpp:100] Creating Layer pool2
I0831 16:53:19.117225 59706 net.cpp:434] pool2 <- conv2_2
I0831 16:53:19.117229 59706 net.cpp:408] pool2 -> pool2
I0831 16:53:19.117257 59706 net.cpp:150] Setting up pool2
I0831 16:53:19.117261 59706 net.cpp:157] Top shape: 4 128 75 75 (2880000)
I0831 16:53:19.117265 59706 net.cpp:165] Memory required for data: 622080064
I0831 16:53:19.117269 59706 layer_factory.hpp:77] Creating layer conv3_1
I0831 16:53:19.117276 59706 net.cpp:100] Creating Layer conv3_1
I0831 16:53:19.117280 59706 net.cpp:434] conv3_1 <- pool2
I0831 16:53:19.117285 59706 net.cpp:408] conv3_1 -> conv3_1
I0831 16:53:19.119410 59706 net.cpp:150] Setting up conv3_1
I0831 16:53:19.119421 59706 net.cpp:157] Top shape: 4 256 75 75 (5760000)
I0831 16:53:19.119426 59706 net.cpp:165] Memory required for data: 645120064
I0831 16:53:19.119433 59706 layer_factory.hpp:77] Creating layer relu3_1
I0831 16:53:19.119438 59706 net.cpp:100] Creating Layer relu3_1
I0831 16:53:19.119442 59706 net.cpp:434] relu3_1 <- conv3_1
I0831 16:53:19.119446 59706 net.cpp:395] relu3_1 -> conv3_1 (in-place)
I0831 16:53:19.119453 59706 net.cpp:150] Setting up relu3_1
I0831 16:53:19.119455 59706 net.cpp:157] Top shape: 4 256 75 75 (5760000)
I0831 16:53:19.119459 59706 net.cpp:165] Memory required for data: 668160064
I0831 16:53:19.119462 59706 layer_factory.hpp:77] Creating layer conv3_2
I0831 16:53:19.119468 59706 net.cpp:100] Creating Layer conv3_2
I0831 16:53:19.119472 59706 net.cpp:434] conv3_2 <- conv3_1
I0831 16:53:19.119475 59706 net.cpp:408] conv3_2 -> conv3_2
I0831 16:53:19.124312 59706 net.cpp:150] Setting up conv3_2
I0831 16:53:19.124334 59706 net.cpp:157] Top shape: 4 256 75 75 (5760000)
I0831 16:53:19.124339 59706 net.cpp:165] Memory required for data: 691200064
I0831 16:53:19.124346 59706 layer_factory.hpp:77] Creating layer relu3_2
I0831 16:53:19.124352 59706 net.cpp:100] Creating Layer relu3_2
I0831 16:53:19.124356 59706 net.cpp:434] relu3_2 <- conv3_2
I0831 16:53:19.124361 59706 net.cpp:395] relu3_2 -> conv3_2 (in-place)
I0831 16:53:19.124369 59706 net.cpp:150] Setting up relu3_2
I0831 16:53:19.124372 59706 net.cpp:157] Top shape: 4 256 75 75 (5760000)
I0831 16:53:19.124375 59706 net.cpp:165] Memory required for data: 714240064
I0831 16:53:19.124377 59706 layer_factory.hpp:77] Creating layer conv3_3
I0831 16:53:19.124387 59706 net.cpp:100] Creating Layer conv3_3
I0831 16:53:19.124388 59706 net.cpp:434] conv3_3 <- conv3_2
I0831 16:53:19.124393 59706 net.cpp:408] conv3_3 -> conv3_3
I0831 16:53:19.129159 59706 net.cpp:150] Setting up conv3_3
I0831 16:53:19.129173 59706 net.cpp:157] Top shape: 4 256 75 75 (5760000)
I0831 16:53:19.129177 59706 net.cpp:165] Memory required for data: 737280064
I0831 16:53:19.129182 59706 layer_factory.hpp:77] Creating layer relu3_3
I0831 16:53:19.129186 59706 net.cpp:100] Creating Layer relu3_3
I0831 16:53:19.129189 59706 net.cpp:434] relu3_3 <- conv3_3
I0831 16:53:19.129192 59706 net.cpp:395] relu3_3 -> conv3_3 (in-place)
I0831 16:53:19.129197 59706 net.cpp:150] Setting up relu3_3
I0831 16:53:19.129199 59706 net.cpp:157] Top shape: 4 256 75 75 (5760000)
I0831 16:53:19.129200 59706 net.cpp:165] Memory required for data: 760320064
I0831 16:53:19.129202 59706 layer_factory.hpp:77] Creating layer pool3
I0831 16:53:19.129204 59706 net.cpp:100] Creating Layer pool3
I0831 16:53:19.129206 59706 net.cpp:434] pool3 <- conv3_3
I0831 16:53:19.129209 59706 net.cpp:408] pool3 -> pool3
I0831 16:53:19.129226 59706 net.cpp:150] Setting up pool3
I0831 16:53:19.129228 59706 net.cpp:157] Top shape: 4 256 38 38 (1478656)
I0831 16:53:19.129231 59706 net.cpp:165] Memory required for data: 766234688
I0831 16:53:19.129232 59706 layer_factory.hpp:77] Creating layer conv4_1
I0831 16:53:19.129237 59706 net.cpp:100] Creating Layer conv4_1
I0831 16:53:19.129240 59706 net.cpp:434] conv4_1 <- pool3
I0831 16:53:19.129242 59706 net.cpp:408] conv4_1 -> conv4_1
I0831 16:53:19.136250 59706 net.cpp:150] Setting up conv4_1
I0831 16:53:19.136332 59706 net.cpp:157] Top shape: 4 512 38 38 (2957312)
I0831 16:53:19.136341 59706 net.cpp:165] Memory required for data: 778063936
I0831 16:53:19.136349 59706 layer_factory.hpp:77] Creating layer relu4_1
I0831 16:53:19.136355 59706 net.cpp:100] Creating Layer relu4_1
I0831 16:53:19.136358 59706 net.cpp:434] relu4_1 <- conv4_1
I0831 16:53:19.136363 59706 net.cpp:395] relu4_1 -> conv4_1 (in-place)
I0831 16:53:19.136371 59706 net.cpp:150] Setting up relu4_1
I0831 16:53:19.136373 59706 net.cpp:157] Top shape: 4 512 38 38 (2957312)
I0831 16:53:19.136375 59706 net.cpp:165] Memory required for data: 789893184
I0831 16:53:19.136377 59706 layer_factory.hpp:77] Creating layer conv4_2
I0831 16:53:19.136385 59706 net.cpp:100] Creating Layer conv4_2
I0831 16:53:19.136387 59706 net.cpp:434] conv4_2 <- conv4_1
I0831 16:53:19.136390 59706 net.cpp:408] conv4_2 -> conv4_2
I0831 16:53:19.150125 59706 net.cpp:150] Setting up conv4_2
I0831 16:53:19.150152 59706 net.cpp:157] Top shape: 4 512 38 38 (2957312)
I0831 16:53:19.150159 59706 net.cpp:165] Memory required for data: 801722432
I0831 16:53:19.150169 59706 layer_factory.hpp:77] Creating layer relu4_2
I0831 16:53:19.150177 59706 net.cpp:100] Creating Layer relu4_2
I0831 16:53:19.150182 59706 net.cpp:434] relu4_2 <- conv4_2
I0831 16:53:19.150187 59706 net.cpp:395] relu4_2 -> conv4_2 (in-place)
I0831 16:53:19.150195 59706 net.cpp:150] Setting up relu4_2
I0831 16:53:19.150198 59706 net.cpp:157] Top shape: 4 512 38 38 (2957312)
I0831 16:53:19.150202 59706 net.cpp:165] Memory required for data: 813551680
I0831 16:53:19.150204 59706 layer_factory.hpp:77] Creating layer conv4_3
I0831 16:53:19.150211 59706 net.cpp:100] Creating Layer conv4_3
I0831 16:53:19.150214 59706 net.cpp:434] conv4_3 <- conv4_2
I0831 16:53:19.150218 59706 net.cpp:408] conv4_3 -> conv4_3
I0831 16:53:19.162330 59706 net.cpp:150] Setting up conv4_3
I0831 16:53:19.162344 59706 net.cpp:157] Top shape: 4 512 38 38 (2957312)
I0831 16:53:19.162372 59706 net.cpp:165] Memory required for data: 825380928
I0831 16:53:19.162377 59706 layer_factory.hpp:77] Creating layer relu4_3
I0831 16:53:19.162382 59706 net.cpp:100] Creating Layer relu4_3
I0831 16:53:19.162385 59706 net.cpp:434] relu4_3 <- conv4_3
I0831 16:53:19.162389 59706 net.cpp:395] relu4_3 -> conv4_3 (in-place)
I0831 16:53:19.162395 59706 net.cpp:150] Setting up relu4_3
I0831 16:53:19.162396 59706 net.cpp:157] Top shape: 4 512 38 38 (2957312)
I0831 16:53:19.162398 59706 net.cpp:165] Memory required for data: 837210176
I0831 16:53:19.162400 59706 layer_factory.hpp:77] Creating layer conv4_3_relu4_3_0_split
I0831 16:53:19.162403 59706 net.cpp:100] Creating Layer conv4_3_relu4_3_0_split
I0831 16:53:19.162405 59706 net.cpp:434] conv4_3_relu4_3_0_split <- conv4_3
I0831 16:53:19.162408 59706 net.cpp:408] conv4_3_relu4_3_0_split -> conv4_3_relu4_3_0_split_0
I0831 16:53:19.162415 59706 net.cpp:408] conv4_3_relu4_3_0_split -> conv4_3_relu4_3_0_split_1
I0831 16:53:19.162436 59706 net.cpp:150] Setting up conv4_3_relu4_3_0_split
I0831 16:53:19.162439 59706 net.cpp:157] Top shape: 4 512 38 38 (2957312)
I0831 16:53:19.162442 59706 net.cpp:157] Top shape: 4 512 38 38 (2957312)
I0831 16:53:19.162444 59706 net.cpp:165] Memory required for data: 860868672
I0831 16:53:19.162447 59706 layer_factory.hpp:77] Creating layer pool4
I0831 16:53:19.162452 59706 net.cpp:100] Creating Layer pool4
I0831 16:53:19.162456 59706 net.cpp:434] pool4 <- conv4_3_relu4_3_0_split_0
I0831 16:53:19.162461 59706 net.cpp:408] pool4 -> pool4
I0831 16:53:19.162478 59706 net.cpp:150] Setting up pool4
I0831 16:53:19.162482 59706 net.cpp:157] Top shape: 4 512 19 19 (739328)
I0831 16:53:19.162484 59706 net.cpp:165] Memory required for data: 863825984
I0831 16:53:19.162487 59706 layer_factory.hpp:77] Creating layer conv5_1
I0831 16:53:19.162494 59706 net.cpp:100] Creating Layer conv5_1
I0831 16:53:19.162498 59706 net.cpp:434] conv5_1 <- pool4
I0831 16:53:19.162501 59706 net.cpp:408] conv5_1 -> conv5_1
I0831 16:53:19.174093 59706 net.cpp:150] Setting up conv5_1
I0831 16:53:19.174167 59706 net.cpp:157] Top shape: 4 512 19 19 (739328)
I0831 16:53:19.174196 59706 net.cpp:165] Memory required for data: 866783296
I0831 16:53:19.174204 59706 layer_factory.hpp:77] Creating layer relu5_1
I0831 16:53:19.174213 59706 net.cpp:100] Creating Layer relu5_1
I0831 16:53:19.174217 59706 net.cpp:434] relu5_1 <- conv5_1
I0831 16:53:19.174226 59706 net.cpp:395] relu5_1 -> conv5_1 (in-place)
I0831 16:53:19.174237 59706 net.cpp:150] Setting up relu5_1
I0831 16:53:19.174240 59706 net.cpp:157] Top shape: 4 512 19 19 (739328)
I0831 16:53:19.174244 59706 net.cpp:165] Memory required for data: 869740608
I0831 16:53:19.174248 59706 layer_factory.hpp:77] Creating layer conv5_2
I0831 16:53:19.174260 59706 net.cpp:100] Creating Layer conv5_2
I0831 16:53:19.174264 59706 net.cpp:434] conv5_2 <- conv5_1
I0831 16:53:19.174268 59706 net.cpp:408] conv5_2 -> conv5_2
I0831 16:53:19.185920 59706 net.cpp:150] Setting up conv5_2
I0831 16:53:19.185932 59706 net.cpp:157] Top shape: 4 512 19 19 (739328)
I0831 16:53:19.185959 59706 net.cpp:165] Memory required for data: 872697920
I0831 16:53:19.185964 59706 layer_factory.hpp:77] Creating layer relu5_2
I0831 16:53:19.185969 59706 net.cpp:100] Creating Layer relu5_2
I0831 16:53:19.185972 59706 net.cpp:434] relu5_2 <- conv5_2
I0831 16:53:19.185978 59706 net.cpp:395] relu5_2 -> conv5_2 (in-place)
I0831 16:53:19.185984 59706 net.cpp:150] Setting up relu5_2
I0831 16:53:19.185987 59706 net.cpp:157] Top shape: 4 512 19 19 (739328)
I0831 16:53:19.185992 59706 net.cpp:165] Memory required for data: 875655232
I0831 16:53:19.185994 59706 layer_factory.hpp:77] Creating layer conv5_3
I0831 16:53:19.186002 59706 net.cpp:100] Creating Layer conv5_3
I0831 16:53:19.186004 59706 net.cpp:434] conv5_3 <- conv5_2
I0831 16:53:19.186007 59706 net.cpp:408] conv5_3 -> conv5_3
I0831 16:53:19.197018 59706 net.cpp:150] Setting up conv5_3
I0831 16:53:19.197036 59706 net.cpp:157] Top shape: 4 512 19 19 (739328)
I0831 16:53:19.197062 59706 net.cpp:165] Memory required for data: 878612544
I0831 16:53:19.197068 59706 layer_factory.hpp:77] Creating layer relu5_3
I0831 16:53:19.197075 59706 net.cpp:100] Creating Layer relu5_3
I0831 16:53:19.197079 59706 net.cpp:434] relu5_3 <- conv5_3
I0831 16:53:19.197085 59706 net.cpp:395] relu5_3 -> conv5_3 (in-place)
I0831 16:53:19.197093 59706 net.cpp:150] Setting up relu5_3
I0831 16:53:19.197096 59706 net.cpp:157] Top shape: 4 512 19 19 (739328)
I0831 16:53:19.197099 59706 net.cpp:165] Memory required for data: 881569856
I0831 16:53:19.197103 59706 layer_factory.hpp:77] Creating layer pool5
I0831 16:53:19.197106 59706 net.cpp:100] Creating Layer pool5
I0831 16:53:19.197110 59706 net.cpp:434] pool5 <- conv5_3
I0831 16:53:19.197114 59706 net.cpp:408] pool5 -> pool5
I0831 16:53:19.197144 59706 net.cpp:150] Setting up pool5
I0831 16:53:19.197149 59706 net.cpp:157] Top shape: 4 512 19 19 (739328)
I0831 16:53:19.197151 59706 net.cpp:165] Memory required for data: 884527168
I0831 16:53:19.197153 59706 layer_factory.hpp:77] Creating layer fc6
I0831 16:53:19.197158 59706 net.cpp:100] Creating Layer fc6
I0831 16:53:19.197160 59706 net.cpp:434] fc6 <- pool5
I0831 16:53:19.197163 59706 net.cpp:408] fc6 -> fc6
I0831 16:53:19.220144 59706 net.cpp:150] Setting up fc6
I0831 16:53:19.220163 59706 net.cpp:157] Top shape: 4 1024 19 19 (1478656)
I0831 16:53:19.220167 59706 net.cpp:165] Memory required for data: 890441792
I0831 16:53:19.220172 59706 layer_factory.hpp:77] Creating layer relu6
I0831 16:53:19.220185 59706 net.cpp:100] Creating Layer relu6
I0831 16:53:19.220186 59706 net.cpp:434] relu6 <- fc6
I0831 16:53:19.220191 59706 net.cpp:395] relu6 -> fc6 (in-place)
I0831 16:53:19.220197 59706 net.cpp:150] Setting up relu6
I0831 16:53:19.220199 59706 net.cpp:157] Top shape: 4 1024 19 19 (1478656)
I0831 16:53:19.220201 59706 net.cpp:165] Memory required for data: 896356416
I0831 16:53:19.220202 59706 layer_factory.hpp:77] Creating layer fc7
I0831 16:53:19.220208 59706 net.cpp:100] Creating Layer fc7
I0831 16:53:19.220209 59706 net.cpp:434] fc7 <- fc6
I0831 16:53:19.220212 59706 net.cpp:408] fc7 -> fc7
I0831 16:53:19.225185 59706 net.cpp:150] Setting up fc7
I0831 16:53:19.225201 59706 net.cpp:157] Top shape: 4 1024 19 19 (1478656)
I0831 16:53:19.225205 59706 net.cpp:165] Memory required for data: 902271040
I0831 16:53:19.225209 59706 layer_factory.hpp:77] Creating layer relu7
I0831 16:53:19.225214 59706 net.cpp:100] Creating Layer relu7
I0831 16:53:19.225216 59706 net.cpp:434] relu7 <- fc7
I0831 16:53:19.225220 59706 net.cpp:395] relu7 -> fc7 (in-place)
I0831 16:53:19.225225 59706 net.cpp:150] Setting up relu7
I0831 16:53:19.225226 59706 net.cpp:157] Top shape: 4 1024 19 19 (1478656)
I0831 16:53:19.225229 59706 net.cpp:165] Memory required for data: 908185664
I0831 16:53:19.225230 59706 layer_factory.hpp:77] Creating layer fc7_relu7_0_split
I0831 16:53:19.225234 59706 net.cpp:100] Creating Layer fc7_relu7_0_split
I0831 16:53:19.225235 59706 net.cpp:434] fc7_relu7_0_split <- fc7
I0831 16:53:19.225239 59706 net.cpp:408] fc7_relu7_0_split -> fc7_relu7_0_split_0
I0831 16:53:19.225243 59706 net.cpp:408] fc7_relu7_0_split -> fc7_relu7_0_split_1
I0831 16:53:19.225267 59706 net.cpp:408] fc7_relu7_0_split -> fc7_relu7_0_split_2
I0831 16:53:19.225270 59706 net.cpp:408] fc7_relu7_0_split -> fc7_relu7_0_split_3
I0831 16:53:19.225299 59706 net.cpp:150] Setting up fc7_relu7_0_split
I0831 16:53:19.225302 59706 net.cpp:157] Top shape: 4 1024 19 19 (1478656)
I0831 16:53:19.225306 59706 net.cpp:157] Top shape: 4 1024 19 19 (1478656)
I0831 16:53:19.225307 59706 net.cpp:157] Top shape: 4 1024 19 19 (1478656)
I0831 16:53:19.225309 59706 net.cpp:157] Top shape: 4 1024 19 19 (1478656)
I0831 16:53:19.225311 59706 net.cpp:165] Memory required for data: 931844160
I0831 16:53:19.225312 59706 layer_factory.hpp:77] Creating layer conv6_1
I0831 16:53:19.225319 59706 net.cpp:100] Creating Layer conv6_1
I0831 16:53:19.225322 59706 net.cpp:434] conv6_1 <- fc7_relu7_0_split_0
I0831 16:53:19.225325 59706 net.cpp:408] conv6_1 -> conv6_1
I0831 16:53:19.226900 59706 net.cpp:150] Setting up conv6_1
I0831 16:53:19.226908 59706 net.cpp:157] Top shape: 4 256 19 19 (369664)
I0831 16:53:19.226912 59706 net.cpp:165] Memory required for data: 933322816
I0831 16:53:19.226915 59706 layer_factory.hpp:77] Creating layer conv6_1_relu
I0831 16:53:19.226919 59706 net.cpp:100] Creating Layer conv6_1_relu
I0831 16:53:19.226922 59706 net.cpp:434] conv6_1_relu <- conv6_1
I0831 16:53:19.226925 59706 net.cpp:395] conv6_1_relu -> conv6_1 (in-place)
I0831 16:53:19.226948 59706 net.cpp:150] Setting up conv6_1_relu
I0831 16:53:19.226950 59706 net.cpp:157] Top shape: 4 256 19 19 (369664)
I0831 16:53:19.226953 59706 net.cpp:165] Memory required for data: 934801472
I0831 16:53:19.226954 59706 layer_factory.hpp:77] Creating layer conv6_2
I0831 16:53:19.226959 59706 net.cpp:100] Creating Layer conv6_2
I0831 16:53:19.226960 59706 net.cpp:434] conv6_2 <- conv6_1
I0831 16:53:19.226963 59706 net.cpp:408] conv6_2 -> conv6_2
I0831 16:53:19.232539 59706 net.cpp:150] Setting up conv6_2
I0831 16:53:19.232573 59706 net.cpp:157] Top shape: 4 512 10 10 (204800)
I0831 16:53:19.232596 59706 net.cpp:165] Memory required for data: 935620672
I0831 16:53:19.232609 59706 layer_factory.hpp:77] Creating layer conv6_2_relu
I0831 16:53:19.232617 59706 net.cpp:100] Creating Layer conv6_2_relu
I0831 16:53:19.232621 59706 net.cpp:434] conv6_2_relu <- conv6_2
I0831 16:53:19.232625 59706 net.cpp:395] conv6_2_relu -> conv6_2 (in-place)
I0831 16:53:19.232633 59706 net.cpp:150] Setting up conv6_2_relu
I0831 16:53:19.232650 59706 net.cpp:157] Top shape: 4 512 10 10 (204800)
I0831 16:53:19.232653 59706 net.cpp:165] Memory required for data: 936439872
I0831 16:53:19.232656 59706 layer_factory.hpp:77] Creating layer conv6_2_conv6_2_relu_0_split
I0831 16:53:19.232663 59706 net.cpp:100] Creating Layer conv6_2_conv6_2_relu_0_split
I0831 16:53:19.232667 59706 net.cpp:434] conv6_2_conv6_2_relu_0_split <- conv6_2
I0831 16:53:19.232671 59706 net.cpp:408] conv6_2_conv6_2_relu_0_split -> conv6_2_conv6_2_relu_0_split_0
I0831 16:53:19.232676 59706 net.cpp:408] conv6_2_conv6_2_relu_0_split -> conv6_2_conv6_2_relu_0_split_1
I0831 16:53:19.232745 59706 net.cpp:408] conv6_2_conv6_2_relu_0_split -> conv6_2_conv6_2_relu_0_split_2
I0831 16:53:19.232767 59706 net.cpp:408] conv6_2_conv6_2_relu_0_split -> conv6_2_conv6_2_relu_0_split_3
I0831 16:53:19.232846 59706 net.cpp:150] Setting up conv6_2_conv6_2_relu_0_split
I0831 16:53:19.232851 59706 net.cpp:157] Top shape: 4 512 10 10 (204800)
I0831 16:53:19.232852 59706 net.cpp:157] Top shape: 4 512 10 10 (204800)
I0831 16:53:19.232854 59706 net.cpp:157] Top shape: 4 512 10 10 (204800)
I0831 16:53:19.232857 59706 net.cpp:157] Top shape: 4 512 10 10 (204800)
I0831 16:53:19.232861 59706 net.cpp:165] Memory required for data: 939716672
I0831 16:53:19.232862 59706 layer_factory.hpp:77] Creating layer conv7_1
I0831 16:53:19.232892 59706 net.cpp:100] Creating Layer conv7_1
I0831 16:53:19.232895 59706 net.cpp:434] conv7_1 <- conv6_2_conv6_2_relu_0_split_0
I0831 16:53:19.232899 59706 net.cpp:408] conv7_1 -> conv7_1
I0831 16:53:19.233294 59706 net.cpp:150] Setting up conv7_1
I0831 16:53:19.233297 59706 net.cpp:157] Top shape: 4 128 10 10 (51200)
I0831 16:53:19.233300 59706 net.cpp:165] Memory required for data: 939921472
I0831 16:53:19.233304 59706 layer_factory.hpp:77] Creating layer conv7_1_relu
I0831 16:53:19.233306 59706 net.cpp:100] Creating Layer conv7_1_relu
I0831 16:53:19.233309 59706 net.cpp:434] conv7_1_relu <- conv7_1
I0831 16:53:19.233312 59706 net.cpp:395] conv7_1_relu -> conv7_1 (in-place)
I0831 16:53:19.233316 59706 net.cpp:150] Setting up conv7_1_relu
I0831 16:53:19.233319 59706 net.cpp:157] Top shape: 4 128 10 10 (51200)
I0831 16:53:19.233323 59706 net.cpp:165] Memory required for data: 940126272
I0831 16:53:19.233325 59706 layer_factory.hpp:77] Creating layer conv7_2
I0831 16:53:19.233332 59706 net.cpp:100] Creating Layer conv7_2
I0831 16:53:19.233335 59706 net.cpp:434] conv7_2 <- conv7_1
I0831 16:53:19.233338 59706 net.cpp:408] conv7_2 -> conv7_2
I0831 16:53:19.235558 59706 net.cpp:150] Setting up conv7_2
I0831 16:53:19.235605 59706 net.cpp:157] Top shape: 4 256 5 5 (25600)
I0831 16:53:19.235610 59706 net.cpp:165] Memory required for data: 940228672
I0831 16:53:19.235620 59706 layer_factory.hpp:77] Creating layer conv7_2_relu
I0831 16:53:19.235628 59706 net.cpp:100] Creating Layer conv7_2_relu
I0831 16:53:19.235633 59706 net.cpp:434] conv7_2_relu <- conv7_2
I0831 16:53:19.235641 59706 net.cpp:395] conv7_2_relu -> conv7_2 (in-place)
I0831 16:53:19.235651 59706 net.cpp:150] Setting up conv7_2_relu
I0831 16:53:19.235652 59706 net.cpp:157] Top shape: 4 256 5 5 (25600)
I0831 16:53:19.235656 59706 net.cpp:165] Memory required for data: 940331072
I0831 16:53:19.235659 59706 layer_factory.hpp:77] Creating layer conv7_2_conv7_2_relu_0_split
I0831 16:53:19.235667 59706 net.cpp:100] Creating Layer conv7_2_conv7_2_relu_0_split
I0831 16:53:19.235671 59706 net.cpp:434] conv7_2_conv7_2_relu_0_split <- conv7_2
I0831 16:53:19.235674 59706 net.cpp:408] conv7_2_conv7_2_relu_0_split -> conv7_2_conv7_2_relu_0_split_0
I0831 16:53:19.235680 59706 net.cpp:408] conv7_2_conv7_2_relu_0_split -> conv7_2_conv7_2_relu_0_split_1
I0831 16:53:19.235685 59706 net.cpp:408] conv7_2_conv7_2_relu_0_split -> conv7_2_conv7_2_relu_0_split_2
I0831 16:53:19.235692 59706 net.cpp:408] conv7_2_conv7_2_relu_0_split -> conv7_2_conv7_2_relu_0_split_3
I0831 16:53:19.235733 59706 net.cpp:150] Setting up conv7_2_conv7_2_relu_0_split
I0831 16:53:19.235738 59706 net.cpp:157] Top shape: 4 256 5 5 (25600)
I0831 16:53:19.235740 59706 net.cpp:157] Top shape: 4 256 5 5 (25600)
I0831 16:53:19.235742 59706 net.cpp:157] Top shape: 4 256 5 5 (25600)
I0831 16:53:19.235745 59706 net.cpp:157] Top shape: 4 256 5 5 (25600)
I0831 16:53:19.235749 59706 net.cpp:165] Memory required for data: 940740672
I0831 16:53:19.235751 59706 layer_factory.hpp:77] Creating layer conv8_1
I0831 16:53:19.235762 59706 net.cpp:100] Creating Layer conv8_1
I0831 16:53:19.235766 59706 net.cpp:434] conv8_1 <- conv7_2_conv7_2_relu_0_split_0
I0831 16:53:19.235771 59706 net.cpp:408] conv8_1 -> conv8_1
I0831 16:53:19.236018 59706 net.cpp:150] Setting up conv8_1
I0831 16:53:19.236024 59706 net.cpp:157] Top shape: 4 128 5 5 (12800)
I0831 16:53:19.236049 59706 net.cpp:165] Memory required for data: 940791872
I0831 16:53:19.236076 59706 layer_factory.hpp:77] Creating layer conv8_1_relu
I0831 16:53:19.236079 59706 net.cpp:100] Creating Layer conv8_1_relu
I0831 16:53:19.236081 59706 net.cpp:434] conv8_1_relu <- conv8_1
I0831 16:53:19.236107 59706 net.cpp:395] conv8_1_relu -> conv8_1 (in-place)
I0831 16:53:19.236114 59706 net.cpp:150] Setting up conv8_1_relu
I0831 16:53:19.236115 59706 net.cpp:157] Top shape: 4 128 5 5 (12800)
I0831 16:53:19.236117 59706 net.cpp:165] Memory required for data: 940843072
I0831 16:53:19.236119 59706 layer_factory.hpp:77] Creating layer conv8_2
I0831 16:53:19.236124 59706 net.cpp:100] Creating Layer conv8_2
I0831 16:53:19.236143 59706 net.cpp:434] conv8_2 <- conv8_1
I0831 16:53:19.236145 59706 net.cpp:408] conv8_2 -> conv8_2
I0831 16:53:19.237955 59706 net.cpp:150] Setting up conv8_2
I0831 16:53:19.237964 59706 net.cpp:157] Top shape: 4 256 3 3 (9216)
I0831 16:53:19.237987 59706 net.cpp:165] Memory required for data: 940879936
I0831 16:53:19.237990 59706 layer_factory.hpp:77] Creating layer conv8_2_relu
I0831 16:53:19.237994 59706 net.cpp:100] Creating Layer conv8_2_relu
I0831 16:53:19.237996 59706 net.cpp:434] conv8_2_relu <- conv8_2
I0831 16:53:19.238018 59706 net.cpp:395] conv8_2_relu -> conv8_2 (in-place)
I0831 16:53:19.238023 59706 net.cpp:150] Setting up conv8_2_relu
I0831 16:53:19.238023 59706 net.cpp:157] Top shape: 4 256 3 3 (9216)
I0831 16:53:19.238044 59706 net.cpp:165] Memory required for data: 940916800
I0831 16:53:19.238046 59706 layer_factory.hpp:77] Creating layer conv8_2_conv8_2_relu_0_split
I0831 16:53:19.238052 59706 net.cpp:100] Creating Layer conv8_2_conv8_2_relu_0_split
I0831 16:53:19.238054 59706 net.cpp:434] conv8_2_conv8_2_relu_0_split <- conv8_2
I0831 16:53:19.238057 59706 net.cpp:408] conv8_2_conv8_2_relu_0_split -> conv8_2_conv8_2_relu_0_split_0
I0831 16:53:19.238061 59706 net.cpp:408] conv8_2_conv8_2_relu_0_split -> conv8_2_conv8_2_relu_0_split_1
I0831 16:53:19.238065 59706 net.cpp:408] conv8_2_conv8_2_relu_0_split -> conv8_2_conv8_2_relu_0_split_2
I0831 16:53:19.238068 59706 net.cpp:408] conv8_2_conv8_2_relu_0_split -> conv8_2_conv8_2_relu_0_split_3
I0831 16:53:19.238121 59706 net.cpp:150] Setting up conv8_2_conv8_2_relu_0_split
I0831 16:53:19.238124 59706 net.cpp:157] Top shape: 4 256 3 3 (9216)
I0831 16:53:19.238126 59706 net.cpp:157] Top shape: 4 256 3 3 (9216)
I0831 16:53:19.238128 59706 net.cpp:157] Top shape: 4 256 3 3 (9216)
I0831 16:53:19.238130 59706 net.cpp:157] Top shape: 4 256 3 3 (9216)
I0831 16:53:19.238132 59706 net.cpp:165] Memory required for data: 941064256
I0831 16:53:19.238133 59706 layer_factory.hpp:77] Creating layer conv9_1
I0831 16:53:19.238158 59706 net.cpp:100] Creating Layer conv9_1
I0831 16:53:19.238160 59706 net.cpp:434] conv9_1 <- conv8_2_conv8_2_relu_0_split_0
I0831 16:53:19.238183 59706 net.cpp:408] conv9_1 -> conv9_1
I0831 16:53:19.238400 59706 net.cpp:150] Setting up conv9_1
I0831 16:53:19.238404 59706 net.cpp:157] Top shape: 4 128 3 3 (4608)
I0831 16:53:19.238406 59706 net.cpp:165] Memory required for data: 941082688
I0831 16:53:19.238409 59706 layer_factory.hpp:77] Creating layer conv9_1_relu
I0831 16:53:19.238412 59706 net.cpp:100] Creating Layer conv9_1_relu
I0831 16:53:19.238433 59706 net.cpp:434] conv9_1_relu <- conv9_1
I0831 16:53:19.238435 59706 net.cpp:395] conv9_1_relu -> conv9_1 (in-place)
I0831 16:53:19.238438 59706 net.cpp:150] Setting up conv9_1_relu
I0831 16:53:19.238440 59706 net.cpp:157] Top shape: 4 128 3 3 (4608)
I0831 16:53:19.238442 59706 net.cpp:165] Memory required for data: 941101120
I0831 16:53:19.238445 59706 layer_factory.hpp:77] Creating layer conv9_2
I0831 16:53:19.238448 59706 net.cpp:100] Creating Layer conv9_2
I0831 16:53:19.238451 59706 net.cpp:434] conv9_2 <- conv9_1
I0831 16:53:19.238453 59706 net.cpp:408] conv9_2 -> conv9_2
I0831 16:53:19.240108 59706 net.cpp:150] Setting up conv9_2
I0831 16:53:19.240116 59706 net.cpp:157] Top shape: 4 256 1 1 (1024)
I0831 16:53:19.240139 59706 net.cpp:165] Memory required for data: 941105216
I0831 16:53:19.240159 59706 layer_factory.hpp:77] Creating layer conv9_2_relu
I0831 16:53:19.240164 59706 net.cpp:100] Creating Layer conv9_2_relu
I0831 16:53:19.240165 59706 net.cpp:434] conv9_2_relu <- conv9_2
I0831 16:53:19.240168 59706 net.cpp:395] conv9_2_relu -> conv9_2 (in-place)
I0831 16:53:19.240171 59706 net.cpp:150] Setting up conv9_2_relu
I0831 16:53:19.240173 59706 net.cpp:157] Top shape: 4 256 1 1 (1024)
I0831 16:53:19.240175 59706 net.cpp:165] Memory required for data: 941109312
I0831 16:53:19.240177 59706 layer_factory.hpp:77] Creating layer conv9_2_conv9_2_relu_0_split
I0831 16:53:19.240180 59706 net.cpp:100] Creating Layer conv9_2_conv9_2_relu_0_split
I0831 16:53:19.240182 59706 net.cpp:434] conv9_2_conv9_2_relu_0_split <- conv9_2
I0831 16:53:19.240185 59706 net.cpp:408] conv9_2_conv9_2_relu_0_split -> conv9_2_conv9_2_relu_0_split_0
I0831 16:53:19.240190 59706 net.cpp:408] conv9_2_conv9_2_relu_0_split -> conv9_2_conv9_2_relu_0_split_1
I0831 16:53:19.240192 59706 net.cpp:408] conv9_2_conv9_2_relu_0_split -> conv9_2_conv9_2_relu_0_split_2
I0831 16:53:19.240213 59706 net.cpp:150] Setting up conv9_2_conv9_2_relu_0_split
I0831 16:53:19.240217 59706 net.cpp:157] Top shape: 4 256 1 1 (1024)
I0831 16:53:19.240221 59706 net.cpp:157] Top shape: 4 256 1 1 (1024)
I0831 16:53:19.240222 59706 net.cpp:157] Top shape: 4 256 1 1 (1024)
I0831 16:53:19.240223 59706 net.cpp:165] Memory required for data: 941121600
I0831 16:53:19.240226 59706 layer_factory.hpp:77] Creating layer conv4_3_norm
I0831 16:53:19.240231 59706 net.cpp:100] Creating Layer conv4_3_norm
I0831 16:53:19.240232 59706 net.cpp:434] conv4_3_norm <- conv4_3_relu4_3_0_split_1
I0831 16:53:19.240236 59706 net.cpp:408] conv4_3_norm -> conv4_3_norm
I0831 16:53:19.240303 59706 net.cpp:150] Setting up conv4_3_norm
I0831 16:53:19.240306 59706 net.cpp:157] Top shape: 4 512 38 38 (2957312)
I0831 16:53:19.240309 59706 net.cpp:165] Memory required for data: 952950848
I0831 16:53:19.240311 59706 layer_factory.hpp:77] Creating layer conv4_3_norm_conv4_3_norm_0_split
I0831 16:53:19.240314 59706 net.cpp:100] Creating Layer conv4_3_norm_conv4_3_norm_0_split
I0831 16:53:19.240316 59706 net.cpp:434] conv4_3_norm_conv4_3_norm_0_split <- conv4_3_norm
I0831 16:53:19.240320 59706 net.cpp:408] conv4_3_norm_conv4_3_norm_0_split -> conv4_3_norm_conv4_3_norm_0_split_0
I0831 16:53:19.240324 59706 net.cpp:408] conv4_3_norm_conv4_3_norm_0_split -> conv4_3_norm_conv4_3_norm_0_split_1
I0831 16:53:19.240327 59706 net.cpp:408] conv4_3_norm_conv4_3_norm_0_split -> conv4_3_norm_conv4_3_norm_0_split_2
I0831 16:53:19.240345 59706 net.cpp:150] Setting up conv4_3_norm_conv4_3_norm_0_split
I0831 16:53:19.240348 59706 net.cpp:157] Top shape: 4 512 38 38 (2957312)
I0831 16:53:19.240350 59706 net.cpp:157] Top shape: 4 512 38 38 (2957312)
I0831 16:53:19.240352 59706 net.cpp:157] Top shape: 4 512 38 38 (2957312)
I0831 16:53:19.240355 59706 net.cpp:165] Memory required for data: 988438592
I0831 16:53:19.240356 59706 layer_factory.hpp:77] Creating layer conv4_3_norm_mbox_loc
I0831 16:53:19.240361 59706 net.cpp:100] Creating Layer conv4_3_norm_mbox_loc
I0831 16:53:19.240363 59706 net.cpp:434] conv4_3_norm_mbox_loc <- conv4_3_norm_conv4_3_norm_0_split_0
I0831 16:53:19.240366 59706 net.cpp:408] conv4_3_norm_mbox_loc -> conv4_3_norm_mbox_loc
I0831 16:53:19.240726 59706 net.cpp:150] Setting up conv4_3_norm_mbox_loc
I0831 16:53:19.240731 59706 net.cpp:157] Top shape: 4 16 38 38 (92416)
I0831 16:53:19.240733 59706 net.cpp:165] Memory required for data: 988808256
I0831 16:53:19.240736 59706 layer_factory.hpp:77] Creating layer conv4_3_norm_mbox_loc_perm
I0831 16:53:19.240741 59706 net.cpp:100] Creating Layer conv4_3_norm_mbox_loc_perm
I0831 16:53:19.240742 59706 net.cpp:434] conv4_3_norm_mbox_loc_perm <- conv4_3_norm_mbox_loc
I0831 16:53:19.240746 59706 net.cpp:408] conv4_3_norm_mbox_loc_perm -> conv4_3_norm_mbox_loc_perm
I0831 16:53:19.240782 59706 net.cpp:150] Setting up conv4_3_norm_mbox_loc_perm
I0831 16:53:19.240787 59706 net.cpp:157] Top shape: 4 38 38 16 (92416)
I0831 16:53:19.240799 59706 net.cpp:165] Memory required for data: 989177920
I0831 16:53:19.240801 59706 layer_factory.hpp:77] Creating layer conv4_3_norm_mbox_loc_flat
I0831 16:53:19.240804 59706 net.cpp:100] Creating Layer conv4_3_norm_mbox_loc_flat
I0831 16:53:19.240806 59706 net.cpp:434] conv4_3_norm_mbox_loc_flat <- conv4_3_norm_mbox_loc_perm
I0831 16:53:19.240810 59706 net.cpp:408] conv4_3_norm_mbox_loc_flat -> conv4_3_norm_mbox_loc_flat
I0831 16:53:19.240826 59706 net.cpp:150] Setting up conv4_3_norm_mbox_loc_flat
I0831 16:53:19.240829 59706 net.cpp:157] Top shape: 4 23104 (92416)
I0831 16:53:19.240832 59706 net.cpp:165] Memory required for data: 989547584
I0831 16:53:19.240833 59706 layer_factory.hpp:77] Creating layer conv4_3_norm_mbox_conf
I0831 16:53:19.240841 59706 net.cpp:100] Creating Layer conv4_3_norm_mbox_conf
I0831 16:53:19.240844 59706 net.cpp:434] conv4_3_norm_mbox_conf <- conv4_3_norm_conv4_3_norm_0_split_1
I0831 16:53:19.240847 59706 net.cpp:408] conv4_3_norm_mbox_conf -> conv4_3_norm_mbox_conf
I0831 16:53:19.242888 59706 net.cpp:150] Setting up conv4_3_norm_mbox_conf
I0831 16:53:19.242895 59706 net.cpp:157] Top shape: 4 84 38 38 (485184)
I0831 16:53:19.242920 59706 net.cpp:165] Memory required for data: 991488320
I0831 16:53:19.242924 59706 layer_factory.hpp:77] Creating layer conv4_3_norm_mbox_conf_perm
I0831 16:53:19.242929 59706 net.cpp:100] Creating Layer conv4_3_norm_mbox_conf_perm
I0831 16:53:19.242931 59706 net.cpp:434] conv4_3_norm_mbox_conf_perm <- conv4_3_norm_mbox_conf
I0831 16:53:19.242935 59706 net.cpp:408] conv4_3_norm_mbox_conf_perm -> conv4_3_norm_mbox_conf_perm
I0831 16:53:19.243012 59706 net.cpp:150] Setting up conv4_3_norm_mbox_conf_perm
I0831 16:53:19.243016 59706 net.cpp:157] Top shape: 4 38 38 84 (485184)
I0831 16:53:19.243018 59706 net.cpp:165] Memory required for data: 993429056
I0831 16:53:19.243021 59706 layer_factory.hpp:77] Creating layer conv4_3_norm_mbox_conf_flat
I0831 16:53:19.243024 59706 net.cpp:100] Creating Layer conv4_3_norm_mbox_conf_flat
I0831 16:53:19.243026 59706 net.cpp:434] conv4_3_norm_mbox_conf_flat <- conv4_3_norm_mbox_conf_perm
I0831 16:53:19.243046 59706 net.cpp:408] conv4_3_norm_mbox_conf_flat -> conv4_3_norm_mbox_conf_flat
I0831 16:53:19.243079 59706 net.cpp:150] Setting up conv4_3_norm_mbox_conf_flat
I0831 16:53:19.243083 59706 net.cpp:157] Top shape: 4 121296 (485184)
I0831 16:53:19.243085 59706 net.cpp:165] Memory required for data: 995369792
I0831 16:53:19.243086 59706 layer_factory.hpp:77] Creating layer conv4_3_norm_mbox_priorbox
I0831 16:53:19.243091 59706 net.cpp:100] Creating Layer conv4_3_norm_mbox_priorbox
I0831 16:53:19.243093 59706 net.cpp:434] conv4_3_norm_mbox_priorbox <- conv4_3_norm_conv4_3_norm_0_split_2
I0831 16:53:19.243096 59706 net.cpp:434] conv4_3_norm_mbox_priorbox <- data_data_0_split_1
I0831 16:53:19.243099 59706 net.cpp:408] conv4_3_norm_mbox_priorbox -> conv4_3_norm_mbox_priorbox
I0831 16:53:19.243111 59706 net.cpp:150] Setting up conv4_3_norm_mbox_priorbox
I0831 16:53:19.243115 59706 net.cpp:157] Top shape: 1 2 23104 (46208)
I0831 16:53:19.243117 59706 net.cpp:165] Memory required for data: 995554624
I0831 16:53:19.243119 59706 layer_factory.hpp:77] Creating layer fc7_mbox_loc
I0831 16:53:19.243124 59706 net.cpp:100] Creating Layer fc7_mbox_loc
I0831 16:53:19.243126 59706 net.cpp:434] fc7_mbox_loc <- fc7_relu7_0_split_1
I0831 16:53:19.243130 59706 net.cpp:408] fc7_mbox_loc -> fc7_mbox_loc
I0831 16:53:19.244020 59706 net.cpp:150] Setting up fc7_mbox_loc
I0831 16:53:19.244024 59706 net.cpp:157] Top shape: 4 24 19 19 (34656)
I0831 16:53:19.244047 59706 net.cpp:165] Memory required for data: 995693248
I0831 16:53:19.244050 59706 layer_factory.hpp:77] Creating layer fc7_mbox_loc_perm
I0831 16:53:19.244055 59706 net.cpp:100] Creating Layer fc7_mbox_loc_perm
I0831 16:53:19.244057 59706 net.cpp:434] fc7_mbox_loc_perm <- fc7_mbox_loc
I0831 16:53:19.244060 59706 net.cpp:408] fc7_mbox_loc_perm -> fc7_mbox_loc_perm
I0831 16:53:19.244099 59706 net.cpp:150] Setting up fc7_mbox_loc_perm
I0831 16:53:19.244102 59706 net.cpp:157] Top shape: 4 19 19 24 (34656)
I0831 16:53:19.244117 59706 net.cpp:165] Memory required for data: 995831872
I0831 16:53:19.244120 59706 layer_factory.hpp:77] Creating layer fc7_mbox_loc_flat
I0831 16:53:19.244123 59706 net.cpp:100] Creating Layer fc7_mbox_loc_flat
I0831 16:53:19.244125 59706 net.cpp:434] fc7_mbox_loc_flat <- fc7_mbox_loc_perm
I0831 16:53:19.244128 59706 net.cpp:408] fc7_mbox_loc_flat -> fc7_mbox_loc_flat
I0831 16:53:19.244143 59706 net.cpp:150] Setting up fc7_mbox_loc_flat
I0831 16:53:19.244148 59706 net.cpp:157] Top shape: 4 8664 (34656)
I0831 16:53:19.244149 59706 net.cpp:165] Memory required for data: 995970496
I0831 16:53:19.244151 59706 layer_factory.hpp:77] Creating layer fc7_mbox_conf
I0831 16:53:19.244155 59706 net.cpp:100] Creating Layer fc7_mbox_conf
I0831 16:53:19.244158 59706 net.cpp:434] fc7_mbox_conf <- fc7_relu7_0_split_2
I0831 16:53:19.244161 59706 net.cpp:408] fc7_mbox_conf -> fc7_mbox_conf
I0831 16:53:19.249269 59706 net.cpp:150] Setting up fc7_mbox_conf
I0831 16:53:19.249279 59706 net.cpp:157] Top shape: 4 126 19 19 (181944)
I0831 16:53:19.249284 59706 net.cpp:165] Memory required for data: 996698272
I0831 16:53:19.249289 59706 layer_factory.hpp:77] Creating layer fc7_mbox_conf_perm
I0831 16:53:19.249292 59706 net.cpp:100] Creating Layer fc7_mbox_conf_perm
I0831 16:53:19.249294 59706 net.cpp:434] fc7_mbox_conf_perm <- fc7_mbox_conf
I0831 16:53:19.249298 59706 net.cpp:408] fc7_mbox_conf_perm -> fc7_mbox_conf_perm
I0831 16:53:19.249362 59706 net.cpp:150] Setting up fc7_mbox_conf_perm
I0831 16:53:19.249366 59706 net.cpp:157] Top shape: 4 19 19 126 (181944)
I0831 16:53:19.249368 59706 net.cpp:165] Memory required for data: 997426048
I0831 16:53:19.249370 59706 layer_factory.hpp:77] Creating layer fc7_mbox_conf_flat
I0831 16:53:19.249374 59706 net.cpp:100] Creating Layer fc7_mbox_conf_flat
I0831 16:53:19.249377 59706 net.cpp:434] fc7_mbox_conf_flat <- fc7_mbox_conf_perm
I0831 16:53:19.249379 59706 net.cpp:408] fc7_mbox_conf_flat -> fc7_mbox_conf_flat
I0831 16:53:19.249390 59706 net.cpp:150] Setting up fc7_mbox_conf_flat
I0831 16:53:19.249393 59706 net.cpp:157] Top shape: 4 45486 (181944)
I0831 16:53:19.249397 59706 net.cpp:165] Memory required for data: 998153824
I0831 16:53:19.249397 59706 layer_factory.hpp:77] Creating layer fc7_mbox_priorbox
I0831 16:53:19.249402 59706 net.cpp:100] Creating Layer fc7_mbox_priorbox
I0831 16:53:19.249404 59706 net.cpp:434] fc7_mbox_priorbox <- fc7_relu7_0_split_3
I0831 16:53:19.249408 59706 net.cpp:434] fc7_mbox_priorbox <- data_data_0_split_2
I0831 16:53:19.249410 59706 net.cpp:408] fc7_mbox_priorbox -> fc7_mbox_priorbox
I0831 16:53:19.249423 59706 net.cpp:150] Setting up fc7_mbox_priorbox
I0831 16:53:19.249425 59706 net.cpp:157] Top shape: 1 2 8664 (17328)
I0831 16:53:19.249428 59706 net.cpp:165] Memory required for data: 998223136
I0831 16:53:19.249430 59706 layer_factory.hpp:77] Creating layer conv6_2_mbox_loc
I0831 16:53:19.249435 59706 net.cpp:100] Creating Layer conv6_2_mbox_loc
I0831 16:53:19.249439 59706 net.cpp:434] conv6_2_mbox_loc <- conv6_2_conv6_2_relu_0_split_1
I0831 16:53:19.249442 59706 net.cpp:408] conv6_2_mbox_loc -> conv6_2_mbox_loc
I0831 16:53:19.249953 59706 net.cpp:150] Setting up conv6_2_mbox_loc
I0831 16:53:19.249958 59706 net.cpp:157] Top shape: 4 24 10 10 (9600)
I0831 16:53:19.249980 59706 net.cpp:165] Memory required for data: 998261536
I0831 16:53:19.249984 59706 layer_factory.hpp:77] Creating layer conv6_2_mbox_loc_perm
I0831 16:53:19.249987 59706 net.cpp:100] Creating Layer conv6_2_mbox_loc_perm
I0831 16:53:19.249989 59706 net.cpp:434] conv6_2_mbox_loc_perm <- conv6_2_mbox_loc
I0831 16:53:19.249992 59706 net.cpp:408] conv6_2_mbox_loc_perm -> conv6_2_mbox_loc_perm
I0831 16:53:19.250038 59706 net.cpp:150] Setting up conv6_2_mbox_loc_perm
I0831 16:53:19.250041 59706 net.cpp:157] Top shape: 4 10 10 24 (9600)
I0831 16:53:19.250044 59706 net.cpp:165] Memory required for data: 998299936
I0831 16:53:19.250046 59706 layer_factory.hpp:77] Creating layer conv6_2_mbox_loc_flat
I0831 16:53:19.250048 59706 net.cpp:100] Creating Layer conv6_2_mbox_loc_flat
I0831 16:53:19.250068 59706 net.cpp:434] conv6_2_mbox_loc_flat <- conv6_2_mbox_loc_perm
I0831 16:53:19.250072 59706 net.cpp:408] conv6_2_mbox_loc_flat -> conv6_2_mbox_loc_flat
I0831 16:53:19.250085 59706 net.cpp:150] Setting up conv6_2_mbox_loc_flat
I0831 16:53:19.250087 59706 net.cpp:157] Top shape: 4 2400 (9600)
I0831 16:53:19.250089 59706 net.cpp:165] Memory required for data: 998338336
I0831 16:53:19.250092 59706 layer_factory.hpp:77] Creating layer conv6_2_mbox_conf
I0831 16:53:19.250097 59706 net.cpp:100] Creating Layer conv6_2_mbox_conf
I0831 16:53:19.250099 59706 net.cpp:434] conv6_2_mbox_conf <- conv6_2_conv6_2_relu_0_split_2
I0831 16:53:19.250102 59706 net.cpp:408] conv6_2_mbox_conf -> conv6_2_mbox_conf
I0831 16:53:19.253005 59706 net.cpp:150] Setting up conv6_2_mbox_conf
I0831 16:53:19.253015 59706 net.cpp:157] Top shape: 4 126 10 10 (50400)
I0831 16:53:19.253041 59706 net.cpp:165] Memory required for data: 998539936
I0831 16:53:19.253046 59706 layer_factory.hpp:77] Creating layer conv6_2_mbox_conf_perm
I0831 16:53:19.253051 59706 net.cpp:100] Creating Layer conv6_2_mbox_conf_perm
I0831 16:53:19.253054 59706 net.cpp:434] conv6_2_mbox_conf_perm <- conv6_2_mbox_conf
I0831 16:53:19.253058 59706 net.cpp:408] conv6_2_mbox_conf_perm -> conv6_2_mbox_conf_perm
I0831 16:53:19.253106 59706 net.cpp:150] Setting up conv6_2_mbox_conf_perm
I0831 16:53:19.253110 59706 net.cpp:157] Top shape: 4 10 10 126 (50400)
I0831 16:53:19.253113 59706 net.cpp:165] Memory required for data: 998741536
I0831 16:53:19.253115 59706 layer_factory.hpp:77] Creating layer conv6_2_mbox_conf_flat
I0831 16:53:19.253118 59706 net.cpp:100] Creating Layer conv6_2_mbox_conf_flat
I0831 16:53:19.253120 59706 net.cpp:434] conv6_2_mbox_conf_flat <- conv6_2_mbox_conf_perm
I0831 16:53:19.253125 59706 net.cpp:408] conv6_2_mbox_conf_flat -> conv6_2_mbox_conf_flat
I0831 16:53:19.253141 59706 net.cpp:150] Setting up conv6_2_mbox_conf_flat
I0831 16:53:19.253145 59706 net.cpp:157] Top shape: 4 12600 (50400)
I0831 16:53:19.253147 59706 net.cpp:165] Memory required for data: 998943136
I0831 16:53:19.253150 59706 layer_factory.hpp:77] Creating layer conv6_2_mbox_priorbox
I0831 16:53:19.253156 59706 net.cpp:100] Creating Layer conv6_2_mbox_priorbox
I0831 16:53:19.253160 59706 net.cpp:434] conv6_2_mbox_priorbox <- conv6_2_conv6_2_relu_0_split_3
I0831 16:53:19.253165 59706 net.cpp:434] conv6_2_mbox_priorbox <- data_data_0_split_3
I0831 16:53:19.253171 59706 net.cpp:408] conv6_2_mbox_priorbox -> conv6_2_mbox_priorbox
I0831 16:53:19.253193 59706 net.cpp:150] Setting up conv6_2_mbox_priorbox
I0831 16:53:19.253197 59706 net.cpp:157] Top shape: 1 2 2400 (4800)
I0831 16:53:19.253201 59706 net.cpp:165] Memory required for data: 998962336
I0831 16:53:19.253202 59706 layer_factory.hpp:77] Creating layer conv7_2_mbox_loc
I0831 16:53:19.253214 59706 net.cpp:100] Creating Layer conv7_2_mbox_loc
I0831 16:53:19.253218 59706 net.cpp:434] conv7_2_mbox_loc <- conv7_2_conv7_2_relu_0_split_1
I0831 16:53:19.253222 59706 net.cpp:408] conv7_2_mbox_loc -> conv7_2_mbox_loc
I0831 16:53:19.253633 59706 net.cpp:150] Setting up conv7_2_mbox_loc
I0831 16:53:19.253662 59706 net.cpp:157] Top shape: 4 24 5 5 (2400)
I0831 16:53:19.253665 59706 net.cpp:165] Memory required for data: 998971936
I0831 16:53:19.253670 59706 layer_factory.hpp:77] Creating layer conv7_2_mbox_loc_perm
I0831 16:53:19.253679 59706 net.cpp:100] Creating Layer conv7_2_mbox_loc_perm
I0831 16:53:19.253684 59706 net.cpp:434] conv7_2_mbox_loc_perm <- conv7_2_mbox_loc
I0831 16:53:19.253686 59706 net.cpp:408] conv7_2_mbox_loc_perm -> conv7_2_mbox_loc_perm
I0831 16:53:19.253746 59706 net.cpp:150] Setting up conv7_2_mbox_loc_perm
I0831 16:53:19.253749 59706 net.cpp:157] Top shape: 4 5 5 24 (2400)
I0831 16:53:19.253751 59706 net.cpp:165] Memory required for data: 998981536
I0831 16:53:19.253753 59706 layer_factory.hpp:77] Creating layer conv7_2_mbox_loc_flat
I0831 16:53:19.253757 59706 net.cpp:100] Creating Layer conv7_2_mbox_loc_flat
I0831 16:53:19.253760 59706 net.cpp:434] conv7_2_mbox_loc_flat <- conv7_2_mbox_loc_perm
I0831 16:53:19.253764 59706 net.cpp:408] conv7_2_mbox_loc_flat -> conv7_2_mbox_loc_flat
I0831 16:53:19.253795 59706 net.cpp:150] Setting up conv7_2_mbox_loc_flat
I0831 16:53:19.253799 59706 net.cpp:157] Top shape: 4 600 (2400)
I0831 16:53:19.253801 59706 net.cpp:165] Memory required for data: 998991136
I0831 16:53:19.253803 59706 layer_factory.hpp:77] Creating layer conv7_2_mbox_conf
I0831 16:53:19.253811 59706 net.cpp:100] Creating Layer conv7_2_mbox_conf
I0831 16:53:19.253814 59706 net.cpp:434] conv7_2_mbox_conf <- conv7_2_conv7_2_relu_0_split_2
I0831 16:53:19.253819 59706 net.cpp:408] conv7_2_mbox_conf -> conv7_2_mbox_conf
I0831 16:53:19.255568 59706 net.cpp:150] Setting up conv7_2_mbox_conf
I0831 16:53:19.255581 59706 net.cpp:157] Top shape: 4 126 5 5 (12600)
I0831 16:53:19.255586 59706 net.cpp:165] Memory required for data: 999041536
I0831 16:53:19.255591 59706 layer_factory.hpp:77] Creating layer conv7_2_mbox_conf_perm
I0831 16:53:19.255600 59706 net.cpp:100] Creating Layer conv7_2_mbox_conf_perm
I0831 16:53:19.255606 59706 net.cpp:434] conv7_2_mbox_conf_perm <- conv7_2_mbox_conf
I0831 16:53:19.255611 59706 net.cpp:408] conv7_2_mbox_conf_perm -> conv7_2_mbox_conf_perm
I0831 16:53:19.255663 59706 net.cpp:150] Setting up conv7_2_mbox_conf_perm
I0831 16:53:19.255667 59706 net.cpp:157] Top shape: 4 5 5 126 (12600)
I0831 16:53:19.255669 59706 net.cpp:165] Memory required for data: 999091936
I0831 16:53:19.255671 59706 layer_factory.hpp:77] Creating layer conv7_2_mbox_conf_flat
I0831 16:53:19.255676 59706 net.cpp:100] Creating Layer conv7_2_mbox_conf_flat
I0831 16:53:19.255679 59706 net.cpp:434] conv7_2_mbox_conf_flat <- conv7_2_mbox_conf_perm
I0831 16:53:19.255683 59706 net.cpp:408] conv7_2_mbox_conf_flat -> conv7_2_mbox_conf_flat
I0831 16:53:19.255695 59706 net.cpp:150] Setting up conv7_2_mbox_conf_flat
I0831 16:53:19.255698 59706 net.cpp:157] Top shape: 4 3150 (12600)
I0831 16:53:19.255702 59706 net.cpp:165] Memory required for data: 999142336
I0831 16:53:19.255702 59706 layer_factory.hpp:77] Creating layer conv7_2_mbox_priorbox
I0831 16:53:19.255708 59706 net.cpp:100] Creating Layer conv7_2_mbox_priorbox
I0831 16:53:19.255712 59706 net.cpp:434] conv7_2_mbox_priorbox <- conv7_2_conv7_2_relu_0_split_3
I0831 16:53:19.255714 59706 net.cpp:434] conv7_2_mbox_priorbox <- data_data_0_split_4
I0831 16:53:19.255720 59706 net.cpp:408] conv7_2_mbox_priorbox -> conv7_2_mbox_priorbox
I0831 16:53:19.255735 59706 net.cpp:150] Setting up conv7_2_mbox_priorbox
I0831 16:53:19.255739 59706 net.cpp:157] Top shape: 1 2 600 (1200)
I0831 16:53:19.255741 59706 net.cpp:165] Memory required for data: 999147136
I0831 16:53:19.255744 59706 layer_factory.hpp:77] Creating layer conv8_2_mbox_loc
I0831 16:53:19.255755 59706 net.cpp:100] Creating Layer conv8_2_mbox_loc
I0831 16:53:19.255759 59706 net.cpp:434] conv8_2_mbox_loc <- conv8_2_conv8_2_relu_0_split_1
I0831 16:53:19.255764 59706 net.cpp:408] conv8_2_mbox_loc -> conv8_2_mbox_loc
I0831 16:53:19.256006 59706 net.cpp:150] Setting up conv8_2_mbox_loc
I0831 16:53:19.256011 59706 net.cpp:157] Top shape: 4 16 3 3 (576)
I0831 16:53:19.256013 59706 net.cpp:165] Memory required for data: 999149440
I0831 16:53:19.256021 59706 layer_factory.hpp:77] Creating layer conv8_2_mbox_loc_perm
I0831 16:53:19.256027 59706 net.cpp:100] Creating Layer conv8_2_mbox_loc_perm
I0831 16:53:19.256031 59706 net.cpp:434] conv8_2_mbox_loc_perm <- conv8_2_mbox_loc
I0831 16:53:19.256034 59706 net.cpp:408] conv8_2_mbox_loc_perm -> conv8_2_mbox_loc_perm
I0831 16:53:19.256076 59706 net.cpp:150] Setting up conv8_2_mbox_loc_perm
I0831 16:53:19.256080 59706 net.cpp:157] Top shape: 4 3 3 16 (576)
I0831 16:53:19.256083 59706 net.cpp:165] Memory required for data: 999151744
I0831 16:53:19.256084 59706 layer_factory.hpp:77] Creating layer conv8_2_mbox_loc_flat
I0831 16:53:19.256088 59706 net.cpp:100] Creating Layer conv8_2_mbox_loc_flat
I0831 16:53:19.256091 59706 net.cpp:434] conv8_2_mbox_loc_flat <- conv8_2_mbox_loc_perm
I0831 16:53:19.256095 59706 net.cpp:408] conv8_2_mbox_loc_flat -> conv8_2_mbox_loc_flat
I0831 16:53:19.256107 59706 net.cpp:150] Setting up conv8_2_mbox_loc_flat
I0831 16:53:19.256124 59706 net.cpp:157] Top shape: 4 144 (576)
I0831 16:53:19.256127 59706 net.cpp:165] Memory required for data: 999154048
I0831 16:53:19.256129 59706 layer_factory.hpp:77] Creating layer conv8_2_mbox_conf
I0831 16:53:19.256134 59706 net.cpp:100] Creating Layer conv8_2_mbox_conf
I0831 16:53:19.256136 59706 net.cpp:434] conv8_2_mbox_conf <- conv8_2_conv8_2_relu_0_split_2
I0831 16:53:19.256141 59706 net.cpp:408] conv8_2_mbox_conf -> conv8_2_mbox_conf
I0831 16:53:19.257032 59706 net.cpp:150] Setting up conv8_2_mbox_conf
I0831 16:53:19.257041 59706 net.cpp:157] Top shape: 4 84 3 3 (3024)
I0831 16:53:19.257045 59706 net.cpp:165] Memory required for data: 999166144
I0831 16:53:19.257069 59706 layer_factory.hpp:77] Creating layer conv8_2_mbox_conf_perm
I0831 16:53:19.257076 59706 net.cpp:100] Creating Layer conv8_2_mbox_conf_perm
I0831 16:53:19.257079 59706 net.cpp:434] conv8_2_mbox_conf_perm <- conv8_2_mbox_conf
I0831 16:53:19.257086 59706 net.cpp:408] conv8_2_mbox_conf_perm -> conv8_2_mbox_conf_perm
I0831 16:53:19.257175 59706 net.cpp:150] Setting up conv8_2_mbox_conf_perm
I0831 16:53:19.257180 59706 net.cpp:157] Top shape: 4 3 3 84 (3024)
I0831 16:53:19.257184 59706 net.cpp:165] Memory required for data: 999178240
I0831 16:53:19.257187 59706 layer_factory.hpp:77] Creating layer conv8_2_mbox_conf_flat
I0831 16:53:19.257194 59706 net.cpp:100] Creating Layer conv8_2_mbox_conf_flat
I0831 16:53:19.257197 59706 net.cpp:434] conv8_2_mbox_conf_flat <- conv8_2_mbox_conf_perm
I0831 16:53:19.257201 59706 net.cpp:408] conv8_2_mbox_conf_flat -> conv8_2_mbox_conf_flat
I0831 16:53:19.257216 59706 net.cpp:150] Setting up conv8_2_mbox_conf_flat
I0831 16:53:19.257221 59706 net.cpp:157] Top shape: 4 756 (3024)
I0831 16:53:19.257225 59706 net.cpp:165] Memory required for data: 999190336
I0831 16:53:19.257228 59706 layer_factory.hpp:77] Creating layer conv8_2_mbox_priorbox
I0831 16:53:19.257236 59706 net.cpp:100] Creating Layer conv8_2_mbox_priorbox
I0831 16:53:19.257238 59706 net.cpp:434] conv8_2_mbox_priorbox <- conv8_2_conv8_2_relu_0_split_3
I0831 16:53:19.257242 59706 net.cpp:434] conv8_2_mbox_priorbox <- data_data_0_split_5
I0831 16:53:19.257247 59706 net.cpp:408] conv8_2_mbox_priorbox -> conv8_2_mbox_priorbox
I0831 16:53:19.257263 59706 net.cpp:150] Setting up conv8_2_mbox_priorbox
I0831 16:53:19.257268 59706 net.cpp:157] Top shape: 1 2 144 (288)
I0831 16:53:19.257272 59706 net.cpp:165] Memory required for data: 999191488
I0831 16:53:19.257275 59706 layer_factory.hpp:77] Creating layer conv9_2_mbox_loc
I0831 16:53:19.257283 59706 net.cpp:100] Creating Layer conv9_2_mbox_loc
I0831 16:53:19.257287 59706 net.cpp:434] conv9_2_mbox_loc <- conv9_2_conv9_2_relu_0_split_0
I0831 16:53:19.257293 59706 net.cpp:408] conv9_2_mbox_loc -> conv9_2_mbox_loc
I0831 16:53:19.257655 59706 net.cpp:150] Setting up conv9_2_mbox_loc
I0831 16:53:19.257663 59706 net.cpp:157] Top shape: 4 16 1 1 (64)
I0831 16:53:19.257666 59706 net.cpp:165] Memory required for data: 999191744
I0831 16:53:19.257669 59706 layer_factory.hpp:77] Creating layer conv9_2_mbox_loc_perm
I0831 16:53:19.257674 59706 net.cpp:100] Creating Layer conv9_2_mbox_loc_perm
I0831 16:53:19.257704 59706 net.cpp:434] conv9_2_mbox_loc_perm <- conv9_2_mbox_loc
I0831 16:53:19.257707 59706 net.cpp:408] conv9_2_mbox_loc_perm -> conv9_2_mbox_loc_perm
I0831 16:53:19.257755 59706 net.cpp:150] Setting up conv9_2_mbox_loc_perm
I0831 16:53:19.257758 59706 net.cpp:157] Top shape: 4 1 1 16 (64)
I0831 16:53:19.257762 59706 net.cpp:165] Memory required for data: 999192000
I0831 16:53:19.257764 59706 layer_factory.hpp:77] Creating layer conv9_2_mbox_loc_flat
I0831 16:53:19.257771 59706 net.cpp:100] Creating Layer conv9_2_mbox_loc_flat
I0831 16:53:19.257773 59706 net.cpp:434] conv9_2_mbox_loc_flat <- conv9_2_mbox_loc_perm
I0831 16:53:19.257777 59706 net.cpp:408] conv9_2_mbox_loc_flat -> conv9_2_mbox_loc_flat
I0831 16:53:19.257792 59706 net.cpp:150] Setting up conv9_2_mbox_loc_flat
I0831 16:53:19.257797 59706 net.cpp:157] Top shape: 4 16 (64)
I0831 16:53:19.257802 59706 net.cpp:165] Memory required for data: 999192256
I0831 16:53:19.257818 59706 layer_factory.hpp:77] Creating layer conv9_2_mbox_conf
I0831 16:53:19.257827 59706 net.cpp:100] Creating Layer conv9_2_mbox_conf
I0831 16:53:19.257829 59706 net.cpp:434] conv9_2_mbox_conf <- conv9_2_conv9_2_relu_0_split_1
I0831 16:53:19.257833 59706 net.cpp:408] conv9_2_mbox_conf -> conv9_2_mbox_conf
I0831 16:53:19.258653 59706 net.cpp:150] Setting up conv9_2_mbox_conf
I0831 16:53:19.258658 59706 net.cpp:157] Top shape: 4 84 1 1 (336)
I0831 16:53:19.258661 59706 net.cpp:165] Memory required for data: 999193600
I0831 16:53:19.258687 59706 layer_factory.hpp:77] Creating layer conv9_2_mbox_conf_perm
I0831 16:53:19.258692 59706 net.cpp:100] Creating Layer conv9_2_mbox_conf_perm
I0831 16:53:19.258693 59706 net.cpp:434] conv9_2_mbox_conf_perm <- conv9_2_mbox_conf
I0831 16:53:19.258697 59706 net.cpp:408] conv9_2_mbox_conf_perm -> conv9_2_mbox_conf_perm
I0831 16:53:19.258738 59706 net.cpp:150] Setting up conv9_2_mbox_conf_perm
I0831 16:53:19.258742 59706 net.cpp:157] Top shape: 4 1 1 84 (336)
I0831 16:53:19.258744 59706 net.cpp:165] Memory required for data: 999194944
I0831 16:53:19.258746 59706 layer_factory.hpp:77] Creating layer conv9_2_mbox_conf_flat
I0831 16:53:19.258749 59706 net.cpp:100] Creating Layer conv9_2_mbox_conf_flat
I0831 16:53:19.258752 59706 net.cpp:434] conv9_2_mbox_conf_flat <- conv9_2_mbox_conf_perm
I0831 16:53:19.258756 59706 net.cpp:408] conv9_2_mbox_conf_flat -> conv9_2_mbox_conf_flat
I0831 16:53:19.258771 59706 net.cpp:150] Setting up conv9_2_mbox_conf_flat
I0831 16:53:19.258775 59706 net.cpp:157] Top shape: 4 84 (336)
I0831 16:53:19.258777 59706 net.cpp:165] Memory required for data: 999196288
I0831 16:53:19.258780 59706 layer_factory.hpp:77] Creating layer conv9_2_mbox_priorbox
I0831 16:53:19.258783 59706 net.cpp:100] Creating Layer conv9_2_mbox_priorbox
I0831 16:53:19.258786 59706 net.cpp:434] conv9_2_mbox_priorbox <- conv9_2_conv9_2_relu_0_split_2
I0831 16:53:19.258790 59706 net.cpp:434] conv9_2_mbox_priorbox <- data_data_0_split_6
I0831 16:53:19.258795 59706 net.cpp:408] conv9_2_mbox_priorbox -> conv9_2_mbox_priorbox
I0831 16:53:19.258810 59706 net.cpp:150] Setting up conv9_2_mbox_priorbox
I0831 16:53:19.258813 59706 net.cpp:157] Top shape: 1 2 16 (32)
I0831 16:53:19.258816 59706 net.cpp:165] Memory required for data: 999196416
I0831 16:53:19.258817 59706 layer_factory.hpp:77] Creating layer mbox_loc
I0831 16:53:19.258822 59706 net.cpp:100] Creating Layer mbox_loc
I0831 16:53:19.258826 59706 net.cpp:434] mbox_loc <- conv4_3_norm_mbox_loc_flat
I0831 16:53:19.258829 59706 net.cpp:434] mbox_loc <- fc7_mbox_loc_flat
I0831 16:53:19.258833 59706 net.cpp:434] mbox_loc <- conv6_2_mbox_loc_flat
I0831 16:53:19.258837 59706 net.cpp:434] mbox_loc <- conv7_2_mbox_loc_flat
I0831 16:53:19.258841 59706 net.cpp:434] mbox_loc <- conv8_2_mbox_loc_flat
I0831 16:53:19.258843 59706 net.cpp:434] mbox_loc <- conv9_2_mbox_loc_flat
I0831 16:53:19.258849 59706 net.cpp:408] mbox_loc -> mbox_loc
I0831 16:53:19.258863 59706 net.cpp:150] Setting up mbox_loc
I0831 16:53:19.258867 59706 net.cpp:157] Top shape: 4 34928 (139712)
I0831 16:53:19.258869 59706 net.cpp:165] Memory required for data: 999755264
I0831 16:53:19.258872 59706 layer_factory.hpp:77] Creating layer mbox_conf
I0831 16:53:19.258877 59706 net.cpp:100] Creating Layer mbox_conf
I0831 16:53:19.258881 59706 net.cpp:434] mbox_conf <- conv4_3_norm_mbox_conf_flat
I0831 16:53:19.258884 59706 net.cpp:434] mbox_conf <- fc7_mbox_conf_flat
I0831 16:53:19.258888 59706 net.cpp:434] mbox_conf <- conv6_2_mbox_conf_flat
I0831 16:53:19.258893 59706 net.cpp:434] mbox_conf <- conv7_2_mbox_conf_flat
I0831 16:53:19.258894 59706 net.cpp:434] mbox_conf <- conv8_2_mbox_conf_flat
I0831 16:53:19.258898 59706 net.cpp:434] mbox_conf <- conv9_2_mbox_conf_flat
I0831 16:53:19.258901 59706 net.cpp:408] mbox_conf -> mbox_conf
I0831 16:53:19.258914 59706 net.cpp:150] Setting up mbox_conf
I0831 16:53:19.258919 59706 net.cpp:157] Top shape: 4 183372 (733488)
I0831 16:53:19.258920 59706 net.cpp:165] Memory required for data: 1002689216
I0831 16:53:19.258934 59706 layer_factory.hpp:77] Creating layer mbox_priorbox
I0831 16:53:19.258939 59706 net.cpp:100] Creating Layer mbox_priorbox
I0831 16:53:19.258941 59706 net.cpp:434] mbox_priorbox <- conv4_3_norm_mbox_priorbox
I0831 16:53:19.258944 59706 net.cpp:434] mbox_priorbox <- fc7_mbox_priorbox
I0831 16:53:19.258947 59706 net.cpp:434] mbox_priorbox <- conv6_2_mbox_priorbox
I0831 16:53:19.258950 59706 net.cpp:434] mbox_priorbox <- conv7_2_mbox_priorbox
I0831 16:53:19.258952 59706 net.cpp:434] mbox_priorbox <- conv8_2_mbox_priorbox
I0831 16:53:19.258955 59706 net.cpp:434] mbox_priorbox <- conv9_2_mbox_priorbox
I0831 16:53:19.258960 59706 net.cpp:408] mbox_priorbox -> mbox_priorbox
I0831 16:53:19.258972 59706 net.cpp:150] Setting up mbox_priorbox
I0831 16:53:19.258976 59706 net.cpp:157] Top shape: 1 2 34928 (69856)
I0831 16:53:19.258978 59706 net.cpp:165] Memory required for data: 1002968640
I0831 16:53:19.258981 59706 layer_factory.hpp:77] Creating layer mbox_conf_reshape
I0831 16:53:19.258989 59706 net.cpp:100] Creating Layer mbox_conf_reshape
I0831 16:53:19.258991 59706 net.cpp:434] mbox_conf_reshape <- mbox_conf
I0831 16:53:19.258996 59706 net.cpp:408] mbox_conf_reshape -> mbox_conf_reshape
I0831 16:53:19.259018 59706 net.cpp:150] Setting up mbox_conf_reshape
I0831 16:53:19.259022 59706 net.cpp:157] Top shape: 4 8732 21 (733488)
I0831 16:53:19.259024 59706 net.cpp:165] Memory required for data: 1005902592
I0831 16:53:19.259027 59706 layer_factory.hpp:77] Creating layer mbox_conf_softmax
I0831 16:53:19.259030 59706 net.cpp:100] Creating Layer mbox_conf_softmax
I0831 16:53:19.259033 59706 net.cpp:434] mbox_conf_softmax <- mbox_conf_reshape
I0831 16:53:19.259037 59706 net.cpp:408] mbox_conf_softmax -> mbox_conf_softmax
I0831 16:53:19.259064 59706 net.cpp:150] Setting up mbox_conf_softmax
I0831 16:53:19.259068 59706 net.cpp:157] Top shape: 4 8732 21 (733488)
I0831 16:53:19.259070 59706 net.cpp:165] Memory required for data: 1008836544
I0831 16:53:19.259073 59706 layer_factory.hpp:77] Creating layer mbox_conf_flatten
I0831 16:53:19.259074 59706 net.cpp:100] Creating Layer mbox_conf_flatten
I0831 16:53:19.259076 59706 net.cpp:434] mbox_conf_flatten <- mbox_conf_softmax
I0831 16:53:19.259079 59706 net.cpp:408] mbox_conf_flatten -> mbox_conf_flatten
I0831 16:53:19.259090 59706 net.cpp:150] Setting up mbox_conf_flatten
I0831 16:53:19.259093 59706 net.cpp:157] Top shape: 4 183372 (733488)
I0831 16:53:19.259096 59706 net.cpp:165] Memory required for data: 1011770496
I0831 16:53:19.259099 59706 layer_factory.hpp:77] Creating layer detection_out
I0831 16:53:19.259109 59706 net.cpp:100] Creating Layer detection_out
I0831 16:53:19.259111 59706 net.cpp:434] detection_out <- mbox_loc
I0831 16:53:19.259114 59706 net.cpp:434] detection_out <- mbox_conf_flatten
I0831 16:53:19.259115 59706 net.cpp:434] detection_out <- mbox_priorbox
I0831 16:53:19.259119 59706 net.cpp:408] detection_out -> detection_out
W0831 16:53:19.259143 59706 detection_output_layer.cpp:49] Failed to create directory: /home/prabodh/data/VOCdevkit/results/VOC2007/SSD_300x300/Main
I0831 16:53:19.260229 59706 net.cpp:150] Setting up detection_out
I0831 16:53:19.260237 59706 net.cpp:157] Top shape: 1 1 1 7 (7)
I0831 16:53:19.260239 59706 net.cpp:165] Memory required for data: 1011770524
I0831 16:53:19.260241 59706 layer_factory.hpp:77] Creating layer detection_eval
I0831 16:53:19.260248 59706 net.cpp:100] Creating Layer detection_eval
I0831 16:53:19.260252 59706 net.cpp:434] detection_eval <- detection_out
I0831 16:53:19.260255 59706 net.cpp:434] detection_eval <- label
I0831 16:53:19.260258 59706 net.cpp:408] detection_eval -> detection_eval
I0831 16:53:19.260846 59706 net.cpp:150] Setting up detection_eval
I0831 16:53:19.260851 59706 net.cpp:157] Top shape: 1 1 21 5 (105)
I0831 16:53:19.260854 59706 net.cpp:165] Memory required for data: 1011770944
I0831 16:53:19.260855 59706 net.cpp:228] detection_eval does not need backward computation.
I0831 16:53:19.260859 59706 net.cpp:228] detection_out does not need backward computation.
I0831 16:53:19.260860 59706 net.cpp:228] mbox_conf_flatten does not need backward computation.
I0831 16:53:19.260877 59706 net.cpp:228] mbox_conf_softmax does not need backward computation.
…
